RotatedMNIST/ckp.pt (torch, 363137 bytes, 12 tensors)

conv1.weight f4 [10, 1, 1, 3, 3]
0	0xbebfcfb0	-0.3746314
1	0xbd20dc0b	-0.03927235
2	0x3d06b90c	0.03289132
3	0x3da21395	0.07913891
4	0x3e98083b	0.2969378
5	0x3db19fce	0.086730585
6	0x3e95d402	0.29263312
7	0xbdd6e651	-0.10493148
8	0x3e857d55	0.26072183
9	0xbe8f023e	-0.27931398
10	0x3de5c81e	0.1121981
11	0xbecfb756	-0.40569562
12	0xbd923eec	-0.07140908
13	0x3e434898	0.19070661
14	0x3de77e63	0.11303403
15	0xbde65e64	-0.11248472
16	0xbe9e6209	-0.3093417
17	0x3dec2572	0.115305796
18	0xbe8b9680	-0.2726326
19	0x3ec1a468	0.37820745
20	0x3edefb21	0.4355097
21	0xbeb6f7c2	-0.357359
22	0xbea47c9e	-0.32126325
23	0x3e85698a	0.26057082
24	0xbe9b5793	-0.3034025
25	0xbe398123	-0.18115668
26	0xbeacb542	-0.3373204
27	0x3dc0e575	0.094187655
28	0xbe4e71f1	-0.20160653
29	0x3dec8452	0.115486756
30	0x3c9e1afe	0.01929998
31	0x3dd5c87e	0.104386315
32	0xbe0a76eb	-0.13521926
33	0xbe4bd9d1	-0.19907309
34	0xbe716a48	-0.235757
35	0xbe111476	-0.14167961
36	0x3ed4152a	0.41422397
37	0xbb9f6ece	-0.004865504
38	0x3c63aba8	0.0138959065
39	0xbe32087c	-0.17386049
40	0xbea14604	-0.3149873
41	0xbdc6ae6d	-0.09701238
42	0xbcf37a96	-0.02972154
43	0xbebb13e4	-0.36538613
44	0xbb502978	-0.0031762999
45	0xbe906f5c	-0.2820996
46	0xbebb8c7b	-0.36630616
47	0xbe1e30d3	-0.15448312
48	0xbef9be56	-0.48778027
49	0xbebe2e5d	-0.37144747
50	0xbf06f604	-0.5271914
51	0xbe31c90e	-0.17361853
52	0x3dd60de1	0.10451866
53	0xbe8bcbee	-0.27304024
54	0x3cb7d5d8	0.022440836
55	0xbecf8bde	-0.40536398
56	0xbed53bdf	-0.4164724
57	0xbd1e68c6	-0.03867414
58	0xbc164d75	-0.009173741
59	0xbdfa3c99	-0.12218589
60	0x3e94a1d2	0.2902971
61	0x3ee9d70b	0.45671877
62	0x3ee01069	0.4376252
63	0xbe79da6a	-0.24399725
64	0x3e64c961	0.22342445
65	0x3e09bbc9	0.1345054
66	0xbf10fc96	-0.56635416
67	0x3ee5107e	0.44739145
68	0x3f0a31af	0.5398206
69	0xbf491094	-0.7854092
70	0x3e72b0b3	0.23700218
71	0x3edb3ad2	0.42818314
72	0x3eb77b75	0.35836378
73	0xbd2006c0	-0.039068937
74	0x3d5ed719	0.05440435
75	0x3f091bc8	0.53558016
76	0x3dd4c2ee	0.103887424
77	0xbdce327e	-0.10068224
78	0xbeccd14b	-0.40003428
79	0xbec494a4	-0.38394654
80	0x3dfaff38	0.1225571
81	0xbe3fe118	-0.1873821
82	0x3c847f8b	0.016174098
83	0xbd4561f5	-0.048189122
84	0x3d420456	0.047367416
85	0x3ef422d3	0.4768282
86	0x3eb8bf11	0.36083272
87	0xbeb79b58	-0.35860705
88	0xbdad54f7	-0.084634714
89	0xbbe9ad5e	-0.0071312627

conv1.bias f4 [10]
0	0x3e528f24	0.20562416
1	0x3eb6272b	0.35576758
2	0x3e627493	0.22114782
3	0x3cfe8e4e	0.031073716
4	0xbe778732	-0.24172667
5	0x3e0102a1	0.12598659
6	0x3d1c0953	0.03809483
7	0x3d83b5a0	0.064311266
8	0x3ea3ff63	0.32030782
9	0x3e503bfa	0.20335379

conv2.weight f4 [10, 10, 4, 3, 3]
0	0x3da62273	0.081120394
1	0x3d4cbc3e	0.04998421
2	0x3deb8939	0.115007825
3	0xbd94fed4	-0.07275167
4	0x3d66e4d5	0.056370575
5	0xbcc66d34	-0.024221994
6	0xbd98ec98	-0.07467002
7	0x3d42fc3c	0.04760383
8	0xbddd2374	-0.10797778
9	0x3d33eddf	0.043928023
10	0x3d8a86f4	0.067640215
11	0x3dfdead8	0.123983085
12	0xbd14b71a	-0.03630743
13	0xbc9000c6	-0.017578494
14	0x3dc37d23	0.09545352
15	0xbe1fa9b2	-0.15592077
16	0x3cdcb07e	0.026939627
17	0x3d426a43	0.04746462
18	0x3bbe3417	0.0058045494
19	0xbc44bc06	-0.012007719
20	0xbd01046d	-0.03149836
21	0x3d7ee75d	0.062232364
22	0x3c5f525c	0.013630476
23	0x3c3b786e	0.011442287
24	0xbd93b2f9	-0.07211871
25	0xbdfc52b6	-0.12320463
26	0xbca28970	-0.019840926
27	0xbcb7f02a	-0.022453386
28	0x3db22c8d	0.08699904
29	0x3d8d4b36	0.06899111
30	0x3d561a82	0.052271374
31	0x3c85c152	0.016327534
32	0x3de11504	0.109903365
33	0xbd799e0b	-0.060941737
34	0xbd9395ec	-0.0720633
35	0x3d851f1b	0.065000735
36	0xbc6530ab	-0.013988654
37	0xbbeff12d	-0.0073224516
38	0xbda9e579	-0.082957216
39	0xbd24b4e9	-0.040211592
40	0x3d1f22ae	0.038851433
41	0x3dbe81b7	0.09302085
42	0xbcd88bac	-0.026433788
43	0xbd9db4d9	-0.077005096
44	0xbdaf14e8	-0.085489094
45	0x3d683143	0.056687605
46	0xbcd613fb	-0.026132574
47	0xbd9afaaa	-0.075673416
48	0xbd4a8701	-0.049445156
49	0x3e0acfbb	0.13555805
50	0x3c9f8052	0.019470368
51	0x3c215ccd	0.009848786
52	0x3d3f394e	0.04668551
53	0x3dbb336c	0.09140667
54	0xbd4f133b	-0.05055545
55	0x3dd21c71	0.10259331
56	0x3c507089	0.012722143
57	0xbcf33ac5	-0.02969111
58	0xbc732fbc	-0.014842924
59	0xbdc50cf1	-0.09621609
60	0xbb6bbf8d	-0.0035972327
61	0xbd8766e3	-0.06611421
62	0xbd123ce6	-0.03570261
63	0xbd1442ef	-0.036196645
64	0xbd705707	-0.058676746
65	0x3d2bd2ac	0.04194896
66	0xbcb00d74	-0.02149079
67	0xbcecd730	-0.028911203
68	0xbdab49cf	-0.08363687
69	0x3da75b12	0.08171667
70	0xbd670621	-0.05640233
71	0xbd78c45f	-0.06073415
72	0x3defebbb	0.11714884
73	0x3d656afd	0.056010235
74	0x3d75a383	0.05997039
75	0x3d48f1a4	0.04905857
76	0x3da763f0	0.081733584
77	0x3e0b7560	0.13618994
78	0x3e001e37	0.12511526
79	0x3dd9ea2b	0.10640367
80	0x3d84580e	0.064621076
81	0xba6b3128	-0.00089718634
82	0x3c091a8d	0.008368147
83	0xbd509163	-0.0509199
84	0xbe1ccab8	-0.15311706
85	0x39600048	0.0002136241
86	0x3c36524d	0.0111280205
87	0xbe2d0695	-0.16897042
88	0xbe1e8d8c	-0.15483683
89	0xbdd3a2cb	-0.10333785
90	0xbdc92251	-0.098209985
91	0x3dbee2d8	0.09320611
92	0xbc00b822	-0.007856401
93	0x3c1bc23c	0.009506758
94	0x3c446cf6	0.011988869
95	0xbdd478c8	-0.103746
96	0x3d830cee	0.063989505
97	0x3c94db23	0.018170899
98	0xbd89f8f4	-0.06736937
99	0xbddbb62c	-0.10728106
100	0xbd4d0aec	-0.050059244
101	0x3c1fd27f	0.009754776
102	0xbdaca77c	-0.084303826
103	0xbe06ff4c	-0.13183326
104	0xbdc5c99e	-0.09657596
105	0xbd650a28	-0.05591789
106	0xbe0b1372	-0.13581637
107	0xbc0f59a8	-0.008749403
108	0xbd8193a8	-0.06326991
109	0x3c098b93	0.0083950935
110	0x3baf89c7	0.0053570005
111	0x3b3cbc5a	0.002879879
112	0x3d487210	0.048936903
113	0x3d31bd52	0.04339344
114	0xbd893ef9	-0.06701464
115	0x3cfa4746	0.030551564
116	0x3d10eaa3	0.035380017
117	0x3d2869e7	0.04111662
118	0x3d38a2b9	0.04507706
119	0xbdb84e25	-0.0899928
120	0xbdda403e	-0.106567845
121	0x3cc60d95	0.024176398
122	0x3cf4d87a	0.02988838
123	0xbd9da168	-0.076968014
124	0xbdbd0610	-0.09229672
125	0xbd97bfd4	-0.07409635
126	0xbd937f9f	-0.07202076
127	0xbdb7a953	-0.08967843
128	0xbd1d4da8	-0.038404137
129	0x3c009b11	0.007849471
130	0x3d2155e7	0.039388563
131	0x3b362775	0.0027794514
132	0x3c44c9a5	0.012010966
133	0xbd58aadb	-0.052897315
134	0x3c1a7e26	0.00942949
135	0xbd7f401e	-0.062317006
136	0xbcf17f33	-0.029479599
137	0x3d5a93ea	0.053363718
138	0x3daeb86e	0.08531271
139	0x3dd99e41	0.10625888
140	0x3d022d4f	0.03178149
141	0xbdbb0583	-0.09131911
142	0x3d6c8783	0.05774642
143	0xbda52a82	-0.08064748
144	0xbcdda6d4	-0.027057089
145	0xbb340b12	-0.0027472419
146	0x3c7a253b	0.0152676655
147	0xbda704b5	-0.08155195
148	0xbd94d280	-0.07266712
149	0x3c517399	0.012783908
150	0xbd83b1aa	-0.06430371
151	0x3d46f0fc	0.048569664
152	0xbc3be855	-0.0114689665
153	0x3dd257fe	0.102706894
154	0x3d405ba8	0.04696241
155	0xbb9bdce4	-0.004756557
156	0x3c05323e	0.008129654
157	0x3da45279	0.08023543
158	0x3d95536a	0.072913006
159	0xbca0410f	-0.019562272
160	0xbd98cc67	-0.07460862
161	0xbdce6888	-0.100785315
162	0xbdaa07ba	-0.08302255
163	0xbd9b1fc6	-0.0757442
164	0xbd954e92	-0.07290377
165	0xbd45406a	-0.048157133
166	0xbc8be0b6	-0.017074924
167	0x3d9c3ce4	0.076288015
168	0xbd28d1a6	-0.04121556
169	0x3b8fb5ab	0.00438567
170	0x3d7358bf	0.059410807
171	0x3d8192b2	0.06326808
172	0xbc9cc0d8	-0.019134924
173	0x3d76fd04	0.06029989
174	0x3cae27d7	0.021259231
175	0xbdb8d4b7	-0.09024947
176	0x3d83bb40	0.064321995
177	0xb9ab0dec	-0.00032626034
178	0xbaaaf1a6	-0.0013041988
179	0xbd4383c2	-0.047733076
180	0x3d9ce4b3	0.076608084
181	0xbda753ec	-0.08170304
182	0xbc97838b	-0.018495342
183	0x3c75ba6f	0.0149980625
184	0xbc88c70f	-0.016696481
185	0xbd2ba8ea	-0.041909136
186	0x3d87818e	0.066165075
187	0xbc8030a5	-0.015648196
188	0x3d089d59	0.033353183
189	0x3d8e08a7	0.06935244
190	0xbc0ca7f7	-0.008584968
191	0xba989c38	-0.0011643237
192	0xbd3fb701	-0.046805386
193	0x3dc44064	0.09582594
194	0x3d8f149a	0.06986351
195	0xbd72509a	-0.0591589
196	0x3d4f5581	0.050618652
197	0xbc54b130	-0.012981698
198	0x3d60a1ec	0.05484192
199	0xbc8636fc	-0.01638364
200	0xbcfa0dbc	-0.030524127
201	0x3dadf73b	0.08494421
202	0xbd3f7abf	-0.04674792
203	0x3d7ac6e1	0.061224822
204	0x3d222d96	0.039594255
205	0x3dd34b1d	0.10317061
206	0x3c69b35b	0.014263953
207	0xbcf41f40	-0.029800057
208	0xbdf3c771	-0.11903275
209	0xbdf1b0c8	-0.118012965
210	0xbbe3af89	-0.0069484157
211	0x3d82d0bb	0.063874684
212	0x3c27ef0e	0.010249866
213	0x3def9b33	0.11699524
214	0x3df36318	0.11884135
215	0x3d453af5	0.04815193
216	0xbda76f89	-0.081755705
217	0xbdaa37f8	-0.083114564
218	0x3b3a19d7	0.002839675
219	0xbdf86fd1	-0.12130702
220	0x3cfc51cf	0.030800728
221	0x3df0ec4f	0.11763822
222	0xbd48fae9	-0.04906741
223	0xbd2cb427	-0.042163994
224	0xbc710c4e	-0.014712406
225	0x3dcbcd7b	0.09951302
226	0xbd924398	-0.07141799
227	0x3d7f814e	0.062379174
228	0x3d80fe49	0.06298501
229	0xbd9a6c5b	-0.075401984
230	0x3d8f333d	0.06992195
231	0xbd246a4b	-0.04014043
232	0xbcb4b2ad	-0.022057856
233	0x3dbc3131	0.0918907
234	0xbdc88147	-0.09790283
235	0x3ce815c9	0.0283307
236	0xbd1b5210	-0.037920058
237	0xbdd3f447	-0.103493266
238	0x3d4b51c8	0.04963854
239	0x3cbdb02b	0.023155292
240	0xbe1bda1a	-0.15219918
241	0xbbcce906	-0.0062533645
242	0xbc999ba0	-0.018750966
243	0xbd7c3a4e	-0.06157904
244	0x3c672f8d	0.014110458
245	0xbdfd92f1	-0.123815425
246	0x3cc4e3ee	0.024034467
247	0xbd90d902	-0.07072641
248	0x39ae7ef4	0.00033282454
249	0x3d4f53b6	0.050616942
250	0xbd20345f	-0.039112445
251	0xbde2da5e	-0.110768065
252	0x3dcdb5d8	0.100444496
253	0x3d90cc39	0.070702024
254	0x3d89a8be	0.06721638
255	0x3b91fd38	0.004455235

conv2.bias f4 [10]
0	0xbd982e3d	-0.07430694
1	0xbc21c8bc	-0.009874519
2	0xbe06e439	-0.13172998
3	0xbce93053	-0.028465426
4	0xbd42b793	-0.04753835
5	0xbd329934	-0.043603137
6	0xbd938e02	-0.0720482
7	0x3cbf5857	0.023357553
8	0x3c36cec3	0.011157694
9	0x3e35cd9a	0.17754212

conv3.weight f4 [20, 10, 4, 3, 3]
0	0xbe25f0fd	-0.16205211
1	0x3c40b057	0.011760793
2	0xbc990d3a	-0.018683065
3	0xbcf1dbcb	-0.02952375
4	0x3c93cb5c	0.018041305
5	0x3c8085d9	0.015688824
6	0xbe2b5fa9	-0.1673571
7	0x3ae58823	0.0017511885
8	0x3dd48cfa	0.10378452
9	0xbcbb80fb	-0.022888651
10	0x3de56562	0.11200978
11	0xbded90a6	-0.11599855
12	0x3d329a75	0.043604333
13	0x3dc68b75	0.09694568
14	0xbd6546ee	-0.055975847
15	0xbd9873b5	-0.07443944
16	0x3ca001b3	0.01953206
17	0xbd1d7444	-0.038440958
18	0xbb5737c8	-0.0032839645
19	0xbe058cca	-0.13041988
20	0x3d3513e5	0.044208426
21	0xbd14e6f9	-0.036353085
22	0xbe326de5	-0.17424734
23	0xbe1c6690	-0.152735
24	0xbd69d583	-0.057088386
25	0x3d091094	0.033463076
26	0xbd9acedc	-0.075589865
27	0x3ca6d39a	0.020364571
28	0x3d80962a	0.062786415
29	0x3cf7f488	0.030267969
30	0x3dafa649	0.08576638
31	0x3d50a7e5	0.050941367
32	0x3c94c2cd	0.018159295
33	0xbdc7e0ee	-0.09759699
34	0xbda99f05	-0.08282284
35	0xbddd1ec3	-0.10796883
36	0xbc24d768	-0.0100611225
37	0xbde2e555	-0.11078898
38	0xbc0ea6b8	-0.008706741
39	0x3dc37e4e	0.09545575
40	0xbd0131ea	-0.031541742
41	0x3d3bd856	0.04586061
42	0xbd41e99d	-0.04734193
43	0x3c8b3bb2	0.016996238
44	0xbd9de7a0	-0.077101946
45	0xbd0859d4	-0.03328879
46	0xbd836cfc	-0.064172715
47	0xbb73f1b3	-0.0037222921
48	0x3d8600ed	0.06543145
49	0xba3f7303	-0.000730321
50	0x3e057f83	0.13036923
51	0x3d90ae58	0.070645034
52	0xbda06f1b	-0.07833692
53	0xbd75a06f	-0.059967455
54	0x3d194a5c	0.03742443
55	0x3d640c6d	0.055675913
56	0x3d74742e	0.05968111
57	0x3d99a07f	0.07501315
58	0x3df471aa	0.11935742
59	0xbd71359e	-0.058889024
60	0x3d0c614c	0.034272477
61	0x3c492fc8	0.012279458
62	0xbdc869e6	-0.097858235
63	0x3d907297	0.07053106
64	0x3d5ca5a9	0.053868923
65	0x3b2a2d99	0.002596712
66	0xbd4f122f	-0.05055445
67	0xbdd3583f	-0.10319566
68	0xbdde11fd	-0.10843275
69	0xbd8f1b1b	-0.06987592
70	0xbd3904c1	-0.04517055
71	0xbe1946fc	-0.14968485
72	0xbdc14dd7	-0.09438675
73	0xbb317903	-0.0027080185
74	0x3cb9dc03	0.022687918
75	0xbc52f13c	-0.012874898
76	0x3d209a4b	0.039209645
77	0xbc8c5e2c	-0.017134748
78	0x3ab85ddd	0.0014066059
79	0x3d8b53a6	0.06803064
80	0xbe094d3f	-0.13408373
81	0xbe0b4835	-0.13601764
82	0x3a387807	0.00070369284
83	0x3d5c7088	0.053818256
84	0xbe32d063	-0.17462306
85	0x3cdc8f5d	0.02692383
86	0xbdc751f1	-0.09732426
87	0x3d7c9b01	0.06167126
88	0xbb9cd3db	-0.0047859973
89	0x3d3d0d8d	0.0461555
90	0x3daa13d0	0.0830456
91	0x3db369c0	0.087604046
92	0xbd944cb9	-0.07241196
93	0xbce3e9a1	-0.027821364
94	0x3de152fe	0.11002158
95	0x3dc8e500	0.09809303
96	0xbd85c6d3	-0.06532063
97	0x3d60507f	0.054764267
98	0x3d9f70b5	0.07785169
99	0xbd1ab784	-0.03777267
100	0xbd290b88	-0.041270763
101	0x3ccef30e	0.025262382
102	0xbdb957bc	-0.09049937
103	0x3d77b02a	0.060470738
104	0x3dc39f2f	0.09551846
105	0xbc0936b9	-0.008374863
106	0xbc9aafdf	-0.01888269
107	0x3c32dd35	0.010916998
108	0x3e2ef5b7	0.1708592
109	0x3d928c52	0.0715567
110	0x3c17c7fb	0.009263988
111	0xbc957b22	-0.01824719
112	0x3d90bcde	0.070672736
113	0xbd1874db	-0.037220817
114	0x3c77681b	0.015100504
115	0xbd1614f0	-0.03664106
116	0x3dab1d89	0.08355243
117	0xbd828ec2	-0.06374885
118	0xbd1843fb	-0.037174206
119	0x3e1af94a	0.15134159
120	0xbd007412	-0.031360693
121	0xbd309caf	-0.043118175
122	0x3e178c04	0.14799505
123	0xbd17e3de	-0.037082545
124	0xbdbdad0b	-0.09261521
125	0x3d827f5b	0.063719474
126	0xbc22c9d6	-0.009935817
127	0x3dd10cfc	0.10207555
128	0xbdbaf1a7	-0.09128123
129	0xbd1e2114	-0.038605765
130	0x3d98c5d4	0.07459608
131	0xbe40d006	-0.18829355
132	0xbcbeb6e1	-0.023280563
133	0x3bb69e39	0.005573061
134	0xbdf400ae	-0.11914192
135	0x3c9332c6	0.017968547
136	0xbd36530e	-0.0445128
137	0x3d382377	0.044955697
138	0x3d66867f	0.05628061
139	0xbd8758b3	-0.06608715
140	0xbdb1c83d	-0.086807705
141	0xbd4b9e02	-0.049711235
142	0xbe125fba	-0.1429433
143	0x3c94ef17	0.018180413
144	0xbd03dde1	-0.032194022
145	0xbdefa865	-0.117020406
146	0xbdc4b11d	-0.09604094
147	0xba1940dc	-0.00058461516
148	0x3d032831	0.03202075
149	0x3d60a3fb	0.054843884
150	0x3d348558	0.04407248
151	0x3d12da83	0.03585292
152	0x3dd116b3	0.10209408
153	0xbdd6f2a2	-0.10495497
154	0xbcf005c6	-0.029299628
155	0xbca7aa90	-0.020467073
156	0xbd776a76	-0.060404263
157	0xbcc7cabe	-0.024388667
158	0x3d4c8f51	0.049941365
159	0xbd589cae	-0.052883796
160	0xbd8ad0ec	-0.0677813
161	0x3cba396b	0.022732457
162	0x3d0632af	0.03276318
163	0x3d09dc9f	0.033657666
164	0x3d190f14	0.037367895
165	0x3d09c0fb	0.033631306
166	0xbdbe67bf	-0.09297132
167	0x3d1eb3a0	0.038745522
168	0xbcff0cf8	-0.031134114
169	0x3d83c201	0.06433488
170	0xbdb0ab73	-0.08626451
171	0x3d137418	0.035999388
172	0xbd5a4efd	-0.053297985
173	0x3d88aa54	0.066731125
174	0xbc3d53c6	-0.011555618
175	0xbd8099e7	-0.062793545
176	0xbdbd41af	-0.09241044
177	0x3d10f48d	0.03538947
178	0x3db0c96c	0.08632168
179	0x3de2d683	0.11076071
180	0xbb819c2d	-0.003955385
181	0xbcb58934	-0.02216015
182	0xbd4f58fb	-0.050621968
183	0x3d91f385	0.07126526
184	0xbd3e95cc	-0.046529576
185	0xbe1af394	-0.1513198
186	0xbd51c38d	-0.051211882
187	0xbc84974a	-0.016185421
188	0xbdf8c369	-0.121466465
189	0xbc81c08b	-0.015838882
190	0xbda4d1e4	-0.08047846
191	0xbdaf6d45	-0.085657634
192	0xbbd52506	-0.0065046577
193	0xbc2ab633	-0.010419416
194	0x3e287bd5	0.16453488
195	0xbdb82961	-0.089922674
196	0x3dc4b95d	0.09605668
197	0x3dac7fc5	0.084228076
198	0xbd6f7cc8	-0.05846861
199	0x3d42e41c	0.047580823
200	0xbd22d9ce	-0.039758496
201	0x3d724724	0.059149876
202	0x3dc408ec	0.09572014
203	0x3c5f139c	0.013615515
204	0xbd3ca638	-0.046056956
205	0x3c245f2e	0.010032458
206	0xbdcbbca0	-0.09948087
207	0xbd5eb894	-0.054375246
208	0xbd91d5d4	-0.071208626
209	0xbd8c9f32	-0.068663016
210	0xbd98d087	-0.074616484
211	0x3d9c8d81	0.07644177
212	0x3bdde970	0.0067722127
213	0x3d429b53	0.04751141
214	0xbbe21c8d	-0.006900376
215	0xbd6b56a4	-0.057455674
216	0x3da0f6cc	0.07859573
217	0xbd646576	-0.055760823
218	0x3da41cc0	0.08013296
219	0xbd6d483b	-0.057930212
220	0xbd56ba28	-0.052423626
221	0xbda68e37	-0.08132594
222	0x3cc2f4c1	0.023798348
223	0x3cfdc6bc	0.030978553
224	0xbd7a367e	-0.061087124
225	0xbd15cf79	-0.036574814
226	0x3c31a1da	0.010841811
227	0xbe10f321	-0.14155246
228	0xbd833176	-0.06405918
229	0xbd45d9d4	-0.04830344
230	0x3c989e28	0.018630102
231	0xbca253c0	-0.019815326
232	0x3da2070a	0.07911499
233	0x3dc3cb71	0.09560288
234	0xbcc4b07d	-0.024009937
235	0x3c8a45bd	0.016878957
236	0xbd4f9aee	-0.05068486
237	0xbd99e1fd	-0.07513807
238	0xbd92e118	-0.071718395
239	0xbdb0f250	-0.086399674
240	0xbd810390	-0.062995076
241	0x3c626b62	0.013819547
242	0xbe00a85f	-0.12564228
243	0x3bbcd80d	0.00576306
244	0xbe08b4b1	-0.13350178
245	0xbd05e2b0	-0.03268689
246	0xbc9c5cff	-0.019087313
247	0x3dc5854b	0.09644564
248	0x3e20ed82	0.15715602
249	0xbdb1ab1b	-0.08675214
250	0x3e0621df	0.13098858
251	0x3de6056b	0.11231502
252	0x3d6efe28	0.05834785
253	0xbd6bb599	-0.057546232
254	0xbd38201b	-0.044952493
255	0xbc39cef9	-0.01134085

conv3.bias f4 [20]
0	0xbd73ed39	-0.059552405
1	0x3dc3fac5	0.09569315
2	0xbbb7a17f	-0.0056039686
3	0x3dc9bf21	0.09850908
4	0x3bffbd88	0.0078045763
5	0xbc52c166	-0.012863493
6	0x3d8226c1	0.06355048
7	0xbdc65c5f	-0.09685587
8	0x3ce6ccf6	0.028173905
9	0xbdcbe308	-0.09955412
10	0x3c305727	0.010762966
11	0xbd80c413	-0.06287398
12	0xbdba902c	-0.0910953
13	0x3c587e87	0.01321376
14	0xbc6dd1ab	-0.014515321
15	0xbdd6e748	-0.10493332
16	0xbc1ebf2f	-0.009689136
17	0xbd909b55	-0.07060877
18	0xbc2f1fd3	-0.01068874
19	0xbd53a21d	-0.051668275

conv4.weight f4 [20, 20, 4, 3, 3]
0	0x3c9adf25	0.018905232
1	0x3d493ba1	0.049129132
2	0x3b499b10	0.003076259
3	0xbb56a27e	-0.0032750661
4	0x3d5ad862	0.053429015
5	0xbd0480f7	-0.032349553
6	0xbd701d80	-0.058621883
7	0xbe2675f2	-0.1625593
8	0xbdd983b6	-0.10620825
9	0xbd7ee2e3	-0.062228095
10	0xbd190a8e	-0.03736358
11	0x3d72e83e	0.059303515
12	0x3ce6e5ca	0.028185744
13	0x3ce5a5d3	0.028033173
14	0xbb4465ac	-0.0029967828
15	0xbdad4825	-0.08461026
16	0x3d7210f5	0.059098203
17	0xbe2a186d	-0.1661088
18	0x3de858a5	0.113450326
19	0x3e1258a8	0.14291632
20	0xbdb66854	-0.08906618
21	0x3e1ce426	0.15321407
22	0xbcfb9f24	-0.030715533
23	0xbd140c20	-0.036144376
24	0x3b9d95c1	0.004809112
25	0xbc822b56	-0.015889805
26	0xbd4dfec9	-0.05029181
27	0x3d66a181	0.056306366
28	0x3cd3c92d	0.025852764
29	0xbc2f07ad	-0.010682982
30	0x3c5c4f7a	0.013446683
31	0xbdd8475e	-0.10560487
32	0x3ccc2733	0.024921035
33	0x3cdbc3f8	0.026826844
34	0xbdf8c17f	-0.121462815
35	0x3dd79c35	0.10527841
36	0xbdadfdf1	-0.08495701
37	0x3d3012f4	0.042986825
38	0x3cc0d3ef	0.023538558
39	0xbdec23b0	-0.11530244
40	0xbdb00bfe	-0.08596037
41	0x3d44352a	0.047902264
42	0xbd9f124d	-0.077671625
43	0x3d912aa4	0.07088211
44	0xbd31cbec	-0.043407366
45	0xbd543c60	-0.05181539
46	0xbd31378b	-0.04326586
47	0xbd079935	-0.033105094
48	0xbd60c70d	-0.05487733
49	0xbd8a9f81	-0.06768704
50	0x3d32002c	0.043457195
51	0xbd30f247	-0.043199804
52	0xbd9e6c9d	-0.0773556
53	0xbb43463e	-0.0029796506
54	0xbd99c5ad	-0.07508407
55	0xbd865615	-0.065593876
56	0x3d7d5a5f	0.061853763
57	0x3d94fd5d	0.07274888
58	0x3cd96823	0.026538914
59	0xbd35cff2	-0.044387765
60	0x3d5e1659	0.05422053
61	0xbace103b	-0.001572139
62	0xbd17d93b	-0.0370724
63	0xbc9b2c23	-0.018941944
64	0xbd65a742	-0.056067713
65	0xbd97acfd	-0.07406042
66	0xbd906f54	-0.07052484
67	0xbc1133e1	-0.008862467
68	0xbd2f231e	-0.0427581
69	0xbb490aea	-0.0030676671
70	0xbc6aa2f6	-0.0143210795
71	0xbd802f62	-0.062590376
72	0xbd782647	-0.06058338
73	0xbd32e072	-0.04367108
74	0x3cc945b1	0.024569364
75	0x3da4b21b	0.080417834
76	0x3be68956	0.0070354147
77	0xbd34f15f	-0.044175502
78	0xbb222ae6	-0.0024744808
79	0xbd8ac493	-0.06775775
80	0xbd4bc0e8	-0.049744517
81	0xbd619af5	-0.05507942
82	0x3dc2017f	0.094729416
83	0x3c3505b2	0.011048721
84	0xbd0c31ee	-0.034227304
85	0xbd4ab274	-0.049486592
86	0xbdb88aab	-0.09010824
87	0x3d3c8414	0.046024397
88	0xbdbc6020	-0.09198022
89	0xbdd012f3	-0.10159864
90	0xbd2925ab	-0.04129569
91	0x3b6c516b	0.003605927
92	0x3dea2b70	0.11434066
93	0xbd626f92	-0.055282183
94	0xbdecebcd	-0.11568413
95	0x3babda97	0.005244564
96	0xbdfe92c3	-0.12430336
97	0x3c97a5ba	0.018511642
98	0x3d23a97d	0.03995656
99	0x3d308bff	0.04310226
100	0xbdffd019	-0.12490863
101	0xbd8be73e	-0.06831215
102	0xbca47a95	-0.020077983
103	0xbc5a4a20	-0.013323337
104	0xbb38df7e	-0.0028209384
105	0xbdd4759c	-0.10373995
106	0xbe2e5e01	-0.17028047
107	0xbd9b2315	-0.07575051
108	0x3d9de32f	0.077093475
109	0x3d0cbaa6	0.03435769
110	0x3d6142a7	0.054995205
111	0x3bb08b7f	0.005387723
112	0xbcfc47e9	-0.030796008
113	0xbd927095	-0.071503796
114	0xbcb37e41	-0.021910788
115	0xbd74252c	-0.059605762
116	0xbba7b627	-0.00511815
117	0xbca7a975	-0.020466546
118	0x3d869992	0.0657226
119	0x3cba73b6	0.022760253
120	0xbb9514e5	-0.00454961
121	0xbcc4eebe	-0.024039622
122	0xbd934044	-0.07189992
123	0xbdb6745d	-0.08908913
124	0x3d3c2a24	0.045938626
125	0xbbcb1aa3	-0.0061982437
126	0xbd7dd8ea	-0.061974443
127	0xbd9a1d24	-0.075250894
128	0xbd75363d	-0.05986618
129	0xbbd59493	-0.0065179556
130	0xbc4a155c	-0.012334194
131	0xbd509e35	-0.050932128
132	0xbde4aa2c	-0.1116527
133	0xbc838e0b	-0.016058942
134	0xbd98f7d6	-0.07469146
135	0x3d1617b7	0.03664371
136	0x3c322b66	0.010874605
137	0x3dc61b73	0.09673204
138	0xbd501cc8	-0.050808698
139	0x3d767ccc	0.06017761
140	0xbdae79e4	-0.085193425
141	0x3d799df1	0.06094164
142	0x3ced8ff7	0.028999312
143	0xbe06c37d	-0.1316051
144	0x3cee049f	0.029054938
145	0x3db6a19f	0.089175455
146	0x3d71e543	0.05905653
147	0xbb851bfe	-0.004062175
148	0xbb82999a	-0.003985596
149	0xbde74e27	-0.11294203
150	0x3caf9d2c	0.02143725
151	0xbd0bbafa	-0.03411386
152	0xbd8d5d6f	-0.06902587
153	0x3df98abe	0.12184666
154	0x3d684476	0.056705914
155	0xbdc5f78b	-0.09666356
156	0x3d9b562f	0.075847976
157	0xbc4a3d95	-0.012343784
158	0xbdc21f90	-0.09478676
159	0xbd391b3f	-0.045192
160	0xbdaed7e3	-0.08537271
161	0xbd346594	-0.044042185
162	0xbc195e47	-0.009360856
163	0x3d661d0f	0.056180056
164	0x3ccf2f6e	0.02529117
165	0xbd3507fc	-0.044197068
166	0x3d801f37	0.06255954
167	0x3e27c909	0.16385283
168	0xbc9786c0	-0.018496871
169	0x3d01cb37	0.03168794
170	0x3debc545	0.115122356
171	0x3d264486	0.040592693
172	0xbdca9c15	-0.098930515
173	0xbd76a9de	-0.06022059
174	0x3d00caa3	0.03144325
175	0xbd9fc758	-0.07801694
176	0xbc9a5879	-0.018841015
177	0xbdc4425c	-0.095829695
178	0x3d37d4ec	0.044880792
179	0xbc3fb04e	-0.011699749
180	0xbd7ac3c5	-0.061221857
181	0xbccec511	-0.025240453
182	0xbc404d73	-0.011737215
183	0x3cdbf845	0.026851783
184	0xbcb15086	-0.021644842
185	0x3d6b1164	0.057389632
186	0xbd18edce	-0.037336163
187	0xbd86c71e	-0.06580947
188	0x3dbb5ac1	0.09148169
189	0xbc578b0c	-0.01315571
190	0xbc8a2929	-0.01686533
191	0x3cce9cc1	0.02522123
192	0x3d8188e7	0.0632494
193	0xbc881d46	-0.016615521
194	0x3e1fbcc7	0.15599357
195	0x3d69e88d	0.057106543
196	0x3cbf4b5f	0.02335137
197	0x3c5b782d	0.013395351
198	0xbc695f51	-0.014243917
199	0x3d03cd48	0.032178193
200	0xbcd9566e	-0.02653047
201	0x3e0bba51	0.13645293
202	0xbcfcc289	-0.03085448
203	0xbc6899e7	-0.014196849
204	0xbd55b666	-0.0521759
205	0xbb6ddd0d	-0.0036295087
206	0x3d325cd4	0.04354556
207	0x3d869ce8	0.06572896
208	0xbdd40ed3	-0.1035439
209	0xbc6287ef	-0.013826354
210	0x3cf6a2b4	0.03010688
211	0xbdc747cb	-0.0973049
212	0xbd7a9580	-0.06117773
213	0x3d329fdf	0.043609496
214	0x3c1f4610	0.009721294
215	0x3cca93e1	0.024728717
216	0xbd7a1eae	-0.061064415
217	0xbcad34e9	-0.021143394
218	0xbd2a3e78	-0.04156348
219	0x3c82e603	0.015978819
220	0xbd8e85e7	-0.069591336
221	0xbd3f77d4	-0.046745136
222	0x3bc8b83f	0.0061254795
223	0x3dadba84	0.08482841
224	0x3b970f36	0.0046099676
225	0xbba67381	-0.005079687
226	0xbd52c844	-0.05146052
227	0x3cd2e285	0.025742779
228	0xbe02d594	-0.12776786
229	0xbd1692ff	-0.03676128
230	0xbdb18473	-0.08667841
231	0xbca0fd81	-0.01965213
232	0xbd8aaa3f	-0.06770753
233	0xbda70dad	-0.08156905
234	0x3d9d50a6	0.07681398
235	0xbd3c5be4	-0.04598607
236	0x3dee76d4	0.116437584
237	0x3c2be3f4	0.01049136
238	0xbd72d907	-0.059289005
239	0x3e114db2	0.14189795
240	0x3c00e65e	0.007867424
241	0x3cbb3280	0.022851229
242	0x3d3ef031	0.046615783
243	0xbd818022	-0.063232675
244	0xbd8677b9	-0.06565804
245	0xbdf42b1f	-0.11922287
246	0xbe1105c9	-0.14162363
247	0xbbb19842	-0.005419762
248	0xbdd854c1	-0.105630405
249	0xbc2c2abd	-0.0105082365
250	0xbd07da58	-0.033167213
251	0xbdef2953	-0.11677804
252	0xbd2797ff	-0.04091644
253	0x3ca9698c	0.020680211
254	0xbccddb70	-0.02512905
255	0x3c266b5f	0.010157435

conv4.bias f4 [20]
0	0x3ce0d34d	0.027444506
1	0x3d2a56c2	0.041586645
2	0x3d50937f	0.050921913
3	0xbdb2a3b7	-0.087226324
4	0x3d5d854b	0.054082196
5	0xbd9a2e92	-0.07528414
6	0x3d658eda	0.056044437
7	0xbd92610b	-0.07147416
8	0x3cebacdb	0.028768947
9	0xbb6595d3	-0.003503193
10	0x3c9fe40e	0.019517925
11	0xbd9020cb	-0.07037505
12	0x3db07e2f	0.086178176
13	0xbd1f3857	-0.03887209
14	0xbc4c9c19	-0.012488388
15	0xbcda3e69	-0.026641088
16	0xbd8c776f	-0.06858718
17	0xbd4893c6	-0.048969053
18	0x3d702c3c	0.058635935
19	0xbd4dcad7	-0.05024227

fc1.weight f4 [50, 1280]
0	0xbb252185	-0.002519698
1	0x3c83a6a5	0.016070673
2	0x3c2f025c	0.010681715
3	0xbdcdaa91	-0.100422986
4	0xbcf37a9e	-0.029721554
5	0x3d22d77f	0.039756294
6	0x3cb14e61	0.02164382
7	0xbdd1e138	-0.10248035
8	0xbcd4d492	-0.025980268
9	0xbcb5ccd9	-0.022192406
10	0xbdba3b4d	-0.09093342
11	0xbd067d91	-0.032834593
12	0xbcb09f64	-0.021560378
13	0x3c9e4f0f	0.019324807
14	0xbcaed2b7	-0.021340711
15	0xbb1e5236	-0.0024157888
16	0xbda6a1f1	-0.081363566
17	0xbdb6d63d	-0.089275815
18	0xbde6cf5b	-0.11270019
19	0xbb8d286b	-0.0043077967
20	0xbbf862c7	-0.0075801346
21	0xb956ff40	-0.00020503718
22	0xbca95b1c	-0.020673327
23	0x3c009a2d	0.007849258
24	0xbce553b9	-0.027994024
25	0x3cf4cd0f	0.029882936
26	0x3d1f62c7	0.03891256
27	0x3b244e28	0.0025070999
28	0xbb0b4a96	-0.0021254173
29	0xbd2bd052	-0.041946717
30	0xbb969365	-0.0045952075
31	0xbcbe68e7	-0.02324338
32	0x3ba6c17c	0.005088983
33	0xbc60a0ea	-0.01371024
34	0xbd169591	-0.03676373
35	0xbc8cf853	-0.017208254
36	0xbda29dc7	-0.0794025
37	0x3d51ecef	0.051251348
38	0x3d8cf083	0.068818115
39	0x3ce6ba1f	0.028164921
40	0xbdb23fc5	-0.08703569
41	0xbd6f0780	-0.058356762
42	0xbc374ff1	-0.011188493
43	0x3d456658	0.048193306
44	0xbd8f0f33	-0.06985321
45	0xbd86c93c	-0.06581351
46	0xbd8a8af0	-0.067647815
47	0xbc3f7b1a	-0.011687065
48	0xbcc9a8a8	-0.024616554
49	0x3c834fae	0.016029205
50	0x3d491dcf	0.049100693
51	0x3d0ddcbc	0.034634337
52	0xbbb5574d	-0.0055340887
53	0x3dad1d30	0.08452833
54	0x3d26f2d4	0.040758923
55	0xbd45654e	-0.048192315
56	0x3c1385d6	0.009004077
57	0x3c635a9d	0.013876584
58	0xbd31800f	-0.043335017
59	0xbda81c05	-0.08208469
60	0x3cce6a9d	0.025197322
61	0x3c091414	0.008366603
62	0xbc395656	-0.011312088
63	0xbd6af5d4	-0.057363346
64	0x3c8e8dd4	0.017401613
65	0xbda93ab5	-0.082631506
66	0xbc862b9a	-0.016378213
67	0x3bc1b20d	0.005911118
68	0x3d90ab20	0.070638895
69	0x3cabf849	0.020992415
70	0xbb88906f	-0.0041676085
71	0xbb6e616a	-0.0036373981
72	0xbba82466	-0.005131292
73	0x3caa48ff	0.02078676
74	0x3c8ea541	0.017412784
75	0xbd3fadad	-0.04679649
76	0xbd33440f	-0.043766078
77	0xbd11fc08	-0.035640746
78	0xbd65154a	-0.055928506
79	0xbbe28d59	-0.0069138226
80	0xbd392a32	-0.045206256
81	0xbb89ac7f	-0.0042014713
82	0xbd4b77e2	-0.049674876
83	0x3bf32285	0.0074198865
84	0xbc93292e	-0.017963972
85	0xbcfabd20	-0.03060776
86	0xbc81b27a	-0.015832175
87	0xbcfa6120	-0.030563891
88	0xbd36ab3d	-0.0445969
89	0x3d6cf494	0.057850435
90	0x3d4ff3ef	0.050769743
91	0xbcbf8402	-0.023378376
92	0xbc1fbeba	-0.009750063
93	0xbc1d8090	-0.009613171
94	0x3d734fc3	0.05940224
95	0xbd7edbe9	-0.06222144
96	0xbbc65b18	-0.0060533397
97	0x3c9fc75b	0.01950424
98	0x3ceff282	0.029290441
99	0xbcf16e76	-0.029471617
100	0xbd0c429e	-0.03424322
101	0x3d25c2cb	0.040468972
102	0x3c8a8f23	0.016913956
103	0x3cb90040	0.022583127
104	0xbd0790fc	-0.033097252
105	0xbcd4d239	-0.025979148
106	0x3c71bfa1	0.014755161
107	0x3cdc2c97	0.02687673
108	0xbd208917	-0.03919324
109	0xbd38b735	-0.045096595
110	0x3c170d95	0.009219547
111	0x3bcc4e0a	0.006234889
112	0x3cc691fc	0.024239533
113	0x3cc1bb4a	0.023648877
114	0x3d8fecb2	0.07027568
115	0xbb7c1e21	-0.0038470107
116	0x3d673384	0.056445614
117	0xbbfffb4e	-0.0078119403
118	0x3ce5f2fb	0.028069964
119	0xbdb84bf0	-0.08998859
120	0x3d4cb56f	0.049977716
121	0xbd51dbd7	-0.051235046
122	0xbd7ca71c	-0.061682805
123	0xbd5e8153	-0.054322552
124	0x3c16191f	0.009161263
125	0xbcd35c74	-0.025800921
126	0xbc356481	-0.011071325
127	0x3cd593b4	0.026071407
128	0xbc561c2d	-0.013068241
129	0xbb9e875c	-0.0048379134
130	0xbca1d63e	-0.019755479
131	0xbdc8dbe0	-0.09807563
132	0xbcf3e430	-0.029771894
133	0xbd57350f	-0.052540835
134	0x3bb34737	0.005471136
135	0xbd3e9f02	-0.04653836
136	0x3c52e268	0.012871362
137	0xbc0e78ef	-0.008695825
138	0x3d64400f	0.055725154
139	0xbd10bc3a	-0.035335757
140	0x3cc31b39	0.023816692
141	0x3cbdc9d2	0.023167524
142	0xbcd63561	-0.0261485
143	0xbc827fa9	-0.015930014
144	0xbdf0e3e6	-0.11762218
145	0xbd1671ee	-0.036729746
146	0xbc13b408	-0.009015091
147	0xbc651408	-0.013981827
148	0xbc99feef	-0.01879832
149	0x3d24b429	0.040210877
150	0x3d2034cd	0.039112855
151	0x3c90ec29	0.017690735
152	0x3d1e7f68	0.038695723
153	0xbdc88a2e	-0.09791981
154	0xbc05cc2d	-0.008166355
155	0x3cc595de	0.024119314
156	0x3cc52b35	0.024068454
157	0xbd3b1fd9	-0.04568467
158	0xbc1e8f75	-0.0096777575
159	0x3cd2ef4c	0.025748871
160	0xbd3fd682	-0.04683543
161	0xbbb2a00d	-0.0054512084
162	0x3d04faef	0.03246587
163	0xbd023c6c	-0.031795904
164	0x3c5c9f05	0.013465648
165	0xbc1b7971	-0.009489403
166	0x3cbc589b	0.02299147
167	0x3d850d27	0.06496649
168	0xbcb4fe05	-0.022093782
169	0xbd299d93	-0.04141004
170	0xbc3a60e5	-0.0113756405
171	0xbd61618d	-0.055024672
172	0xbc9660ed	-0.018356765
173	0xbbaf9e78	-0.005359467
174	0xbd724efc	-0.059157357
175	0xbcfcef76	-0.030875903
176	0x3d61c4dd	0.055119384
177	0x3d831360	0.0640018
178	0xbc585763	-0.013204428
179	0xbd3e3283	-0.04643489
180	0x3d91dd0a	0.07122238
181	0x3cc19a07	0.023633016
182	0xbdc9259d	-0.09821627
183	0xbd0693fd	-0.032855976
184	0x3c3f8a69	0.011690714
185	0x3c8a8cb8	0.016912803
186	0xbd5bf3db	-0.053699356
187	0xbd8643e5	-0.065559186
188	0xbb76d7b3	-0.0037665188
189	0x3bcc71fc	0.006239174
190	0xbd17d674	-0.037069753
191	0x3cbb9a0b	0.022900602
192	0xbce51969	-0.027966218
193	0x3cf2bd9f	0.029631434
194	0x3d4de19d	0.05026399
195	0x3c95df08	0.018294826
196	0xbd122903	-0.035683643
197	0x3cf95e72	0.030440543
198	0x3dc24918	0.09486598
199	0x3b0b3363	0.0021240346
200	0x3c2edb23	0.010672363
201	0x3d812fe7	0.06307965
202	0x3d1e4a9d	0.038645376
203	0x3cb17a9b	0.021664908
204	0x3bde9539	0.006792691
205	0x3ce036c8	0.027369872
206	0xbcf76dc2	-0.030203704
207	0xbd833673	-0.0640687
208	0x3d4af27f	0.04954767
209	0x3bd27a53	0.0064232736
210	0xbb2552bb	-0.0025226313
211	0x3d7d6fd3	0.061874222
212	0x3d3eef39	0.04661486
213	0xbc1776b0	-0.009244606
214	0x3d752651	0.059850994
215	0xbd69463b	-0.056951743
216	0x3c8510fc	0.01624345
217	0x3d3077b3	0.043082904
218	0x3d6f3aed	0.058405805
219	0x3c5dbf06	0.013534313
220	0xbbb79d77	-0.005603488
221	0xbb27448f	-0.0025523042
222	0x3b66ec0e	0.0035235914
223	0x3d0b0081	0.033936027
224	0x3ccab0bd	0.024742479
225	0x3c2618c8	0.010137744
226	0x3b6c5c24	0.0036065662
227	0xba6f4321	-0.00091271295
228	0x3c9d511d	0.019203717
229	0xbc763703	-0.015027764
230	0x3b9e6976	0.0048343493
231	0x3cbe4ac2	0.023229007
232	0x3c192248	0.009346552
233	0x3ccddaae	0.025128689
234	0x3cd24454	0.025667347
235	0x3b841f3f	0.004032045
236	0x3cbe9d71	0.023268433
237	0x3d201068	0.039078146
238	0x3d56116c	0.05226271
239	0xbd3dac25	-0.046306748
240	0x3c5581f1	0.013031469
241	0xbd0bf0ed	-0.03416531
242	0x3bf2309d	0.007391049
243	0xbd258a7b	-0.04041527
244	0xbba5ec56	-0.005063574
245	0x3c126d6b	0.00893722
246	0xbcbdd49f	-0.023172675
247	0x3d096c28	0.03355041
248	0xbd41ba91	-0.047297064
249	0x3c06fe32	0.008239316
250	0x3dba9db5	0.091121115
251	0x3d187ef1	0.037230436
252	0xbd08c9f8	-0.033395737
253	0x3c9531a9	0.018212156
254	0x3d11ec34	0.03562565
255	0x3c89def0	0.016829938

fc1.bias f4 [50]
0	0xbcf107af	-0.02942261
1	0x3acf8110	0.001583131
2	0x3c3d38cb	0.011549185
3	0xbac648fa	-0.001512795
4	0x3d56e232	0.05246181
5	0xbbeac624	-0.0071647335
6	0xbc14f521	-0.009091646
7	0x3c4fb0cd	0.01267643
8	0xbc42a580	-0.011880279
9	0x3cc1c84b	0.023655077
10	0xbc056c48	-0.008143492
11	0x3c71d4d3	0.014760214
12	0x3b1799a8	0.0023132358
13	0x3c48ad99	0.01224842
14	0x3c4aab1d	0.012369898
15	0x3ceaa6c2	0.02864397
16	0xbd2f7588	-0.042836696
17	0xbd00ee30	-0.031477153
18	0x3b3f453b	0.0029185552
19	0x3adfb2b5	0.0017066809
20	0xbbcf5383	-0.006327094
21	0x3bd36728	0.006451506
22	0xbc809f08	-0.015700832
23	0x3c982b4f	0.018575339
24	0x3c957d1e	0.018248137
25	0x3c434f26	0.011920726
26	0xbcf6272b	-0.030047974
27	0x3c24986a	0.010046104
28	0x3bf23d51	0.0073925634
29	0x3be12f51	0.0068720956
30	0xbc860631	-0.016360374
31	0x3c22c4d5	0.009934624
32	0x3ceecc2a	0.029150087
33	0x3c87e8c2	0.01659048
34	0xbc5c1150	-0.013431862
35	0xbcf6241c	-0.030046515
36	0x3cc2858a	0.023745317
37	0xba049b73	-0.0005058564
38	0xbc92b86e	-0.017910209
39	0x3c4adf37	0.01238232
40	0x3bdbf3d5	0.0067124167
41	0x3a44868b	0.0007496855
42	0x3c683d47	0.014174766
43	0x3ce1c3f0	0.02755925
44	0x3c6425da	0.01392504
45	0x3cc3b3bd	0.023889417
46	0xbb08d31f	-0.002087779
47	0xbb73635a	-0.0037138076
48	0x3c74e929	0.014948168
49	0xbcd210eb	-0.025642833

fc2.weight f4 [10, 50]
0	0xbeb01425	-0.3439037
1	0x3a78ada6	0.0009486325
2	0xbe92a659	-0.28642538
3	0xbe375010	-0.17901635
4	0xbdfa4902	-0.122209564
5	0xbe973850	-0.2953515
6	0xbd9b7aa2	-0.0759175
7	0xbdd401a5	-0.10351876
8	0x3e7be68c	0.24599665
9	0x3e975807	0.29559347
10	0xbe485b2e	-0.19566032
11	0x3e472789	0.19448675
12	0xbea31294	-0.3185011
13	0x3e664df7	0.22490679
14	0x3e8fc601	0.28080752
15	0x3dd8899e	0.105731234
16	0x3e3caf8f	0.18426345
17	0xbe95d38f	-0.2926297
18	0xbe931291	-0.28725103
19	0xbe854594	-0.26029646
20	0xbe8d9597	-0.2765319
21	0xbe16775a	-0.14693967
22	0xbe2938b5	-0.16525538
23	0xbe263f26	-0.16235027
24	0xbe2ddc40	-0.1697855
25	0x3e7cc0bc	0.24682897
26	0x3e519e44	0.2047053
27	0xbbab6944	-0.0052310545
28	0x3e3d91d4	0.1851266
29	0xbe6e35fd	-0.23262782
30	0x3ea02404	0.31277478
31	0xbdb71157	-0.08938854
32	0xbe0f25ae	-0.13979217
33	0x3e8b9798	0.27264094
34	0x3e4e7854	0.20163089
35	0xbe87d686	-0.26530856
36	0xbe860479	-0.26175287
37	0xbd43ec18	-0.04783258
38	0xbe2df01e	-0.16986129
39	0xbea1b3a1	-0.31582358
40	0x3e96d896	0.29462117
41	0xbe5ed004	-0.21759039
42	0x3e329e52	0.17443207
43	0xbe712208	-0.23548138
44	0xbe32a1e8	-0.17444575
45	0x3eaf5c5d	0.34250155
46	0xbde4da40	-0.111744404
47	0xbe0a209f	-0.13489006
48	0xbe8e4fa5	-0.2779514
49	0xbe8d350b	-0.2757953
50	0x3e3b8fad	0.18316527
51	0x3eebc186	0.46046084
52	0xbe8fa028	-0.28051877
53	0xbe9d8a2a	-0.30769473
54	0x3e7e2510	0.24818826
55	0xbe758b3d	-0.23978896
56	0xbdf943a4	-0.121711046
57	0x3eb0aa84	0.34505093
58	0xbe36f38a	-0.1786634
59	0xbe3e2e23	-0.18572287
60	0xbe30f0db	-0.17279379
61	0x3e053305	0.13007744
62	0x3e7b5060	0.2454238
63	0xbe144e39	-0.14482965
64	0x3e5f88b7	0.21829496
65	0xbe168c9a	-0.14702073
66	0xbeac6777	-0.33672687
67	0xbe8d23b9	-0.27566317
68	0x3e5e87a3	0.21731429
69	0x3e711051	0.2354138
70	0xbd336d00	-0.043805122
71	0xbcf9281c	-0.030414633
72	0xbe3c19d9	-0.18369235
73	0xbda1b579	-0.07895941
74	0x3e3bda87	0.1834508
75	0xbe406342	-0.18787864
76	0xbe553178	-0.20819652
77	0x3e83ac29	0.25717285
78	0xbe7502ec	-0.23926896
79	0xbead48ae	-0.33844513
80	0xbdafc584	-0.08582595
81	0xbca64d96	-0.020300668
82	0x3ec4d4ea	0.3844369
83	0x3e63ad22	0.22234014
84	0xbe16fbd5	-0.14744504
85	0x3e7870a5	0.2426172
86	0x3e669008	0.22515881
87	0xbdd3ab32	-0.10335387
88	0x3e8012d6	0.2501437
89	0x3e52a9a4	0.20572525
90	0xbe3211c1	-0.17389585
91	0xbe6730d2	-0.22577217
92	0xbd14cb76	-0.036326848
93	0xbc5070df	-0.012722223
94	0xbd2d671e	-0.04233467
95	0x3e9895b2	0.29801708
96	0xbe61174c	-0.21981543
97	0xbd2fd317	-0.04292592
98	0x3d707bf6	0.05871197
99	0xbd9c1133	-0.07620468
100	0x3e28c442	0.16481116
101	0x3dbc7a13	0.09202971
102	0xbbcae79e	-0.0061921617
103	0xbd2d5d44	-0.042325273
104	0xbde2b0f7	-0.110689096
105	0xbe04531c	-0.12922329
106	0x3e6b7ba7	0.22996388
107	0xbd34c75a	-0.04413543
108	0x3e7446df	0.2385516
109	0xbc9eaa0a	-0.01936819
110	0xbd100d6f	-0.03516906
111	0xbe2b182b	-0.16708438
112	0xbe09b491	-0.13447787
113	0x3e4f1c7b	0.20225708
114	0xbe47b118	-0.1950115
115	0xbd1bf6e8	-0.038077265
116	0x3e14d2c3	0.14533524
117	0xbe4a625b	-0.19764082
118	0xbe898cd3	-0.26865253
119	0x3e7c69df	0.24649762
120	0x3e484734	0.19558412
121	0xbde3155f	-0.110880606
122	0xbdf97c2b	-0.12181886
123	0x3c82dd07	0.015974535
124	0xbdc266e2	-0.094922796
125	0xbe75c88d	-0.24002285
126	0xbe5406cd	-0.2070572
127	0x3e997689	0.29973248
128	0x3e3fe9dc	0.18741554
129	0xbe2dafa0	-0.16961527
130	0x3e98e8b3	0.29865035
131	0xbe6e1128	-0.23248732
132	0xbd70bc4a	-0.058773316
133	0xbe3cf6f0	-0.18453574
134	0x3e655ad8	0.22397935
135	0x3e6cc0a3	0.2312036
136	0xbe83a67f	-0.25712964
137	0x3e8d6474	0.27615702
138	0xbda84e5a	-0.082180694
139	0x3e5554b8	0.20833099
140	0xbe2d1e5b	-0.16906111
141	0x3e446dcb	0.19182508
142	0xbe093f6d	-0.13403101
143	0xbe288e4e	-0.16460535
144	0x3e672208	0.22571576
145	0xbe51a248	-0.20472062
146	0xbe124e61	-0.14287712
147	0x3c34116a	0.01099048
148	0x3e0a9b2b	0.13535754
149	0xbe330411	-0.1748202
150	0xbe1cbfb3	-0.15307502
151	0xbdcdd868	-0.10051042
152	0x3d138b5a	0.036021568
153	0xbdd7d58a	-0.10538776
154	0xbdad6c68	-0.084679425
155	0xbd962110	-0.07330525
156	0x3e82a9cb	0.25520167
157	0x3ea3fecb	0.3203033
158	0xbda71d85	-0.08159927
159	0x3e878519	0.26468733
160	0x3e826699	0.254689
161	0xbde0c6c6	-0.10975413
162	0xbe812c94	-0.25229323
163	0xbd4dcc99	-0.050243948
164	0xbe2683c3	-0.162612
165	0x3e669033	0.22515945
166	0xbe029e47	-0.1275569
167	0x3e5a63a3	0.21327071
168	0xbdf763f5	-0.12079612
169	0x3e875caa	0.26437885
170	0xbd3e154e	-0.046407036
171	0x3e8d6dfe	0.2762298
172	0xbe30dace	-0.17270967
173	0x3ea16e64	0.31529534
174	0x3e4fc599	0.20290221
175	0xbe0d064e	-0.13771936
176	0xbe545f07	-0.20739375
177	0xbc3b2c05	-0.011424069
178	0x3e32c3b9	0.17457475
179	0xbdcc57f7	-0.099777155
180	0xbb995c0b	-0.004680162
181	0xbe70ce93	-0.23516302
182	0xbe349cfc	-0.1763801
183	0xbd8d93e9	-0.06912977
184	0xbd0b0636	-0.03394147
185	0xbdeb706f	-0.114960544
186	0xbe19a4e1	-0.15004303
187	0x3e87c956	0.26520795
188	0xbe3249ad	-0.17410918
189	0xbdc3dced	-0.095636226
190	0xbe101b27	-0.14072858
191	0xbe015a63	-0.12632136
192	0xbe04780e	-0.12936422
193	0x3e6e1439	0.23249902
194	0x3e5379c8	0.20651925
195	0xbe4dfb69	-0.20115437
196	0x3e7866e6	0.24258003
197	0xbdb57fb8	-0.08862251
198	0x3e119c32	0.1421974
199	0xbdfd08cf	-0.12355196
200	0x3e23e2fb	0.16004555
201	0xbcfae80b	-0.030628225
202	0xbda77e6e	-0.081784114
203	0x3e3c192c	0.18368977
204	0xbe67efa0	-0.22650003
205	0x3e3d98ab	0.1851527
206	0xbe793a15	-0.24338563
207	0xbe575da5	-0.21031816
208	0xbcecce39	-0.028906928
209	0xbe42461c	-0.18972057
210	0x3e84c22f	0.259294
211	0xbe839ca1	-0.25705436
212	0x3e80ec66	0.25180358
213	0xbe5f9253	-0.21833162
214	0xbd3e51c4	-0.046464697
215	0xbe3d9706	-0.18514642
216	0x3de41720	0.11137223
217	0x3e4b04d4	0.1982606
218	0xbd2e7d10	-0.042599738
219	0xbe6540f4	-0.22388059
220	0xbe8a7471	-0.27041963
221	0xbe030f72	-0.1279886
222	0x3e72629d	0.2367043
223	0xbe35c88f	-0.17752288
224	0x3e3a1b06	0.18174371
225	0xbbecfae7	-0.0072320583
226	0xbe1c446f	-0.1526048
227	0xbe1b2a00	-0.1515274
228	0xbe96be71	-0.2944217
229	0x3e525fe8	0.20544398
230	0x3c64c93f	0.013963996
231	0x3e634b34	0.22196656
232	0xbe23db7b	-0.16001694
233	0xbe85c69f	-0.26128098
234	0xbd8fa3e2	-0.0701368
235	0x3e724b67	0.23661576
236	0x3d2a6920	0.04160416
237	0xbe234086	-0.15942582
238	0x3e7a7016	0.2445682
239	0x3e51bc3e	0.20481965
240	0xbe20fdf9	-0.15721883
241	0x3e3e1fcf	0.18566822
242	0x3dabb556	0.083841965
243	0xbde625c1	-0.1123767
244	0xbe62e165	-0.22156294
245	0xbe508fc5	-0.20367344
246	0xbe501631	-0.20320965
247	0xbe4f4917	-0.20242725
248	0x3dd2d44a	0.10294397
249	0x3e72c937	0.2370957
250	0xbe003503	-0.12520222
251	0xbdca12ed	-0.09866891
252	0x3e6b5453	0.22981386
253	0x3e5a558f	0.213217
254	0x3e702bc0	0.2345419
255	0x3e4a0330	0.19727778

fc2.bias f4 [10]
0	0xbcf3fa37	-0.029782398
1	0xbce2abd0	-0.027669817
2	0xbb936f8e	-0.0044993823
3	0xbd1dd3f0	-0.038532197
4	0x3e93dc00	0.28878784
5	0xbd925499	-0.07145042
6	0x3de59025	0.11209134
7	0xbe057cb3	-0.1303585
8	0x3e2bb486	0.16768083
9	0xbe9fe1e6	-0.31227034
