RotatedMNIST/datackp.pt (torch, 363137 bytes, 12 tensors)

conv1.weight f4 [10, 1, 1, 3, 3]
0	0xbdd578ae	-0.104234084
1	0xbe839265	-0.25697628
2	0xbe8db4e9	-0.27677086
3	0xbea4c48d	-0.32181206
4	0xbdfc67bf	-0.123244755
5	0x3e0585b6	0.13039288
6	0xbc71994e	-0.014746023
7	0x3ed6e05a	0.41968042
8	0x3eb0dc1f	0.3454294
9	0xbe2ce11d	-0.16882749
10	0x3e5e003b	0.21679775
11	0xbed0b7ef	-0.4076533
12	0xbeb21dea	-0.34788448
13	0xbe7e5073	-0.24835376
14	0xbedead5f	-0.43491647
15	0xbe94e071	-0.29077485
16	0xbddc57e0	-0.10758948
17	0xbe8d8327	-0.27639124
18	0x3eb7231a	0.35768968
19	0x3d258b8f	0.040416297
20	0xbf021113	-0.50807303
21	0x3eaa5986	0.33271426
22	0x3e0b3a66	0.13596496
23	0x3e331965	0.17490156
24	0xbe052e28	-0.13005888
25	0x3db23d46	0.08703093
26	0xbe85d876	-0.2614171
27	0x3e498e53	0.19683199
28	0x3e82039b	0.25393376
29	0x3f0ac9ce	0.5421418
30	0xbeb15070	-0.3463168
31	0xbe6c37c2	-0.23068145
32	0x3e06e041	0.13171484
33	0x3c902c65	0.017599294
34	0xbe599655	-0.21248753
35	0xbe940fd6	-0.28918332
36	0xbec39c81	-0.3820534
37	0x3b0867d5	0.0020813842
38	0xbde851d4	-0.113437325
39	0xbeb1ef3e	-0.3475284
40	0x3ecfc69f	0.40581223
41	0x3ef8129b	0.48451695
42	0x3dcaf65e	0.09910272
43	0xbe15d176	-0.14630684
44	0x3ec71c3d	0.38888732
45	0xbe40bbf6	-0.18821701
46	0x3e9c0350	0.30471277
47	0xbe8466ac	-0.25859582
48	0x3ee2b2b9	0.4427698
49	0x3e529c1f	0.20567368
50	0xbeae160d	-0.34001198
51	0x3eca68aa	0.39532977
52	0x3e3447e9	0.17605557
53	0xbeec9ffb	-0.46215805
54	0x3e8a7825	0.27044788
55	0x3eb827f8	0.35967994
56	0xbf11a652	-0.5689441
57	0x3e0ddf49	0.13854708
58	0xbdd08d04	-0.101831466
59	0x3deacb14	0.11464515
60	0x3e8b13f0	0.2716365
61	0x3e92015e	0.28516668
62	0xbed7f0b3	-0.42175826
63	0xbe2b18c5	-0.16708668
64	0xbeae66a3	-0.3406268
65	0x3da72457	0.08161228
66	0x3e4c9c39	0.19981469
67	0xbe83f3ae	-0.2577185
68	0xbd966c4c	-0.07344875
69	0x3e1e6314	0.15467483
70	0xbe17eaa7	-0.14835607
71	0xbe073be3	-0.13206439
72	0x3e8eb255	0.27870432
73	0x3e851082	0.25989157
74	0x3e811bae	0.2521643
75	0xbe620dce	-0.22075579
76	0xbea0ddf0	-0.31419325
77	0x3e82cf2f	0.25548694
78	0xbeccaccc	-0.39975584
79	0xbe890c41	-0.2676716
80	0x3ddad166	0.10684471
81	0x3eb251a8	0.34827924
82	0xbc9c0c20	-0.01904875
83	0xbec94d74	-0.39316905
84	0x3ed478cf	0.4149842
85	0xbe198885	-0.14993484
86	0xbed965c0	-0.42460442
87	0x3e8a52da	0.27016336
88	0x3e76510e	0.24054357
89	0xbdbbb598	-0.09165496

conv1.bias f4 [10]
0	0xbe4d46a2	-0.20046476
1	0x3dd78232	0.1052288
2	0x3da87773	0.08225908
3	0xbe1d36f4	-0.15352994
4	0x3ea59aef	0.32344767
5	0x3e1281b2	0.14307287
6	0x3ef21ba4	0.47286713
7	0xbe6bbf57	-0.23022209
8	0x3eaf8bdc	0.34286392
9	0x3e5a9ae0	0.21348143

conv2.weight f4 [10, 10, 4, 3, 3]
0	0xbcfbc8e8	-0.030735448
1	0xbcec53ed	-0.028848613
2	0xbd4d8ec9	-0.050185
3	0xbd6b63dd	-0.057468284
4	0x3d5bcc3a	0.053661563
5	0x3cd4f95c	0.02599781
6	0xbdfb8a08	-0.12282187
7	0xbdbb2775	-0.09138385
8	0x3dd18601	0.10230637
9	0x3db8b93c	0.09019706
10	0x3b83e314	0.0040248726
11	0xbd329dbc	-0.04360746
12	0xbd3f62e6	-0.046725176
13	0xbd9fab2d	-0.07796321
14	0x3d94429b	0.072392665
15	0xbd7a0e7c	-0.06104897
16	0xbd475077	-0.04866072
17	0xbcedf8bc	-0.02904927
18	0x3d465153	0.0484174
19	0xbe0583e0	-0.13038588
20	0xbd4994ac	-0.04921405
21	0xbdc8ea9c	-0.09810373
22	0x3b966f3c	0.004590897
23	0xbde4eb3e	-0.111776814
24	0xbd882520	-0.06647706
25	0x3da1f8ae	0.0790876
26	0x3d12721e	0.035753362
27	0xbd897e5b	-0.067135535
28	0x3b0be719	0.0021347462
29	0x3e0cc769	0.13747944
30	0x3d3dd3e0	0.046344638
31	0xbdaa8226	-0.08325605
32	0xbca0e28d	-0.019639278
33	0x3d13c7b7	0.036079135
34	0x3bdcad7a	0.006734547
35	0x3d1e3897	0.038628187
36	0x3d38b6dd	0.045096267
37	0xba831eae	-0.001000365
38	0x3d9a2d29	0.07528145
39	0x3cd3b9d7	0.025845451
40	0x3c8de85c	0.017322712
41	0xbb30697f	-0.002691835
42	0x3d93e084	0.07220557
43	0xbdc6ae1e	-0.09701179
44	0x3d665eb0	0.056242645
45	0xbddab2c9	-0.10678632
46	0xbab60f46	-0.001389005
47	0x3d5ab4bc	0.053395018
48	0xbdb9f27a	-0.09079452
49	0xbd33662c	-0.04379861
50	0xbc813db4	-0.015776493
51	0xbdb9d464	-0.090737134
52	0x3d828304	0.063726455
53	0x3d17f4c0	0.037098646
54	0xbdc2e9f0	-0.09517276
55	0x3d4070e3	0.046982657
56	0xbcc02367	-0.023454381
57	0xbdbf621a	-0.09344883
58	0x3d91d189	0.07120044
59	0x3d8f0857	0.069840126
60	0xbd45a323	-0.048251282
61	0x3d537897	0.051628675
62	0xbd77d296	-0.060503565
63	0x3d4e26bd	0.050329912
64	0x3cc8c276	0.024506789
65	0xbcb24d9a	-0.021765519
66	0xbc4c7f3a	-0.012481505
67	0xbd66bc42	-0.05633188
68	0xbce255b5	-0.027628759
69	0x3d76587b	0.060142975
70	0x3d14c779	0.036323044
71	0xbd2f7803	-0.04283906
72	0xbd94ed44	-0.07271817
73	0x3df5d0bb	0.12002703
74	0x3d93d3b7	0.07218116
75	0xbd9787a8	-0.07398921
76	0x3d5c8204	0.05383493
77	0x3d839e63	0.06426694
78	0x3db24ec3	0.08706429
79	0x3d560c33	0.052257728
80	0x3dac597b	0.084155045
81	0x3c24b2bc	0.010052379
82	0xbdc34f5e	-0.095366225
83	0x3d9aa63a	0.075512365
84	0xbd144f4c	-0.036208436
85	0xbc17598a	-0.009237656
86	0xbd24e1a1	-0.04025424
87	0xbd2d1a52	-0.04226143
88	0x3d026fd6	0.031844936
89	0x3cbcbea6	0.023040127
90	0x3d0885b3	0.03333063
91	0x3dcd9ce3	0.100396894
92	0x3dc7acc1	0.09749747
93	0x3c2077ae	0.009794159
94	0x3de69de9	0.11260588
95	0x3d39f9eb	0.045404356
96	0xbd0e6724	-0.03476633
97	0x3d0ac5bb	0.033879977
98	0xbca3aa10	-0.019978553
99	0xbded4720	-0.11585832
100	0xbd4a0a0b	-0.049325984
101	0xbd6df7a1	-0.058097485
102	0xbda5b178	-0.0809049
103	0xbd4844c7	-0.048893716
104	0xbccec3b6	-0.025239807
105	0xbd895bd0	-0.06706965
106	0x3d660500	0.056157112
107	0x3d86e95f	0.06587481
108	0x3d9d4a19	0.07680149
109	0x3c0f3d60	0.00874266
110	0xb9c05f8b	-0.0003669228
111	0x3cd733d8	0.026269838
112	0xbd263256	-0.040575348
113	0x3db0ee33	0.08639183
114	0x3c9cefb4	0.019157268
115	0xbd9dc67f	-0.07703876
116	0xbc182abf	-0.009287535
117	0x3dc1d253	0.09463944
118	0xbdea1446	-0.11429648
119	0xbde4e22a	-0.1117595
120	0x3ccc927c	0.024972193
121	0x3d064624	0.032781735
122	0xbc59cc5f	-0.013293355
123	0x3cb90b3f	0.02258837
124	0xbd195fe2	-0.037444957
125	0x3d09a6e7	0.033606436
126	0x3d8dd1d2	0.06924786
127	0x3b8d9438	0.0043206476
128	0x3d6a87cd	0.057258416
129	0xbcb04a45	-0.02151979
130	0x3d904f4e	0.07046376
131	0xbd5440b0	-0.051819503
132	0xbd2d175f	-0.042258617
133	0x3d97e771	0.07417191
134	0xbd6aa1c9	-0.057283197
135	0x3d1d5ecc	0.038420483
136	0x3ca75e14	0.020430602
137	0xbd4b3d1e	-0.049618833
138	0xbc9673e2	-0.018365804
139	0x3db43bc5	0.08800463
140	0x3d6d509a	0.057938196
141	0xbd2a6a84	-0.041605487
142	0xbd48297a	-0.04886768
143	0xbd43b095	-0.047775824
144	0x3d50332e	0.05083006
145	0xbccab23c	-0.024743192
146	0xbde7299b	-0.112872325
147	0x3c04519c	0.008076098
148	0xbd0f666f	-0.035009798
149	0xbd1a288b	-0.03763632
150	0x3d1abc9f	0.03777754
151	0x3e0cab57	0.13737236
152	0x3d9cc361	0.07654453
153	0xbc231b04	-0.0099551715
154	0x3d3d58b7	0.046227183
155	0xbdb1cd0c	-0.08681688
156	0xbce9d222	-0.028542582
157	0x3d6446aa	0.055731453
158	0xbd2ef37f	-0.042712685
159	0xbdc77b3f	-0.09740304
160	0x3daeb268	0.08530122
161	0x3dcfeade	0.10152219
162	0x3ccfb30d	0.025353933
163	0x3db32ffb	0.08749386
164	0x3dca04b7	0.098641805
165	0xbd5a4def	-0.05329698
166	0xbdd2b602	-0.102886215
167	0x3ce833a6	0.02834494
168	0x3d0c2053	0.034210514
169	0xbe00308c	-0.12518519
170	0xbdcb18ee	-0.09916864
171	0x3c0540f5	0.008133163
172	0x3d8fee04	0.0702782
173	0xbd4bf0af	-0.04979008
174	0x3d476213	0.048677515
175	0xbdee4dbe	-0.11635922
176	0x3dd0e82f	0.102005355
177	0x3dc6d3cb	0.09708365
178	0xbdb7c9d0	-0.089740396
179	0x3d45fb3c	0.0483353
180	0xbe03877d	-0.12844653
181	0xbd72d15a	-0.059281684
182	0x3d8c59da	0.06853075
183	0x3dbbcba2	0.09169699
184	0xbdfee0c4	-0.124452144
185	0xbd841648	-0.06449562
186	0x3dba991f	0.09111237
187	0xbdaca6df	-0.08430266
188	0xbcd803f1	-0.026369067
189	0x3d5b948d	0.053608466
190	0xbcc57837	-0.024105174
191	0x3dd93493	0.10605731
192	0xbe13b86d	-0.14425822
193	0xbd868624	-0.06568554
194	0xbd106155	-0.035249073
195	0x3da833cf	0.08213007
196	0xbe012cca	-0.12614742
197	0x3d1c943d	0.03822731
198	0x3d8d9461	0.06913067
199	0x3d15c86f	0.0365681
200	0xbcb77b67	-0.02239771
201	0xbdcc48e3	-0.099748395
202	0x3d9d48ee	0.07679926
203	0x3d8803ca	0.06641348
204	0xbdb6f7d3	-0.089339875
205	0x3c968e11	0.01837829
206	0x3ce7936c	0.028268538
207	0xbd5ea604	-0.054357544
208	0xbda42c5e	-0.08016275
209	0x3c0e52ac	0.008686703
210	0xbe1a4adf	-0.15067624
211	0x3dcf7796	0.10130231
212	0x3c4b6f57	0.012416682
213	0xbdabe57b	-0.08393379
214	0xbdcf8ce8	-0.101342976
215	0xbba8cc50	-0.005151309
216	0xbda3ad75	-0.07992069
217	0xbdbdf463	-0.09275129
218	0x3bd5d261	0.0065253233
219	0xbd22bbda	-0.03972993
220	0x3d3c97d7	0.046043243
221	0xbc18e4fe	-0.00933194
222	0x3d4f130d	0.050555278
223	0x39cfbb06	0.0003962146
224	0xbd380d67	-0.044934656
225	0x3d7bd0f0	0.061478555
226	0xbd8aad18	-0.06771296
227	0xbd92bf15	-0.07165352
228	0xbd9cd2ec	-0.07657418
229	0xbbe3b7e3	-0.0069494112
230	0x3d523c21	0.051326875
231	0x3df12e8e	0.11776458
232	0x3d52bec0	0.051451445
233	0x3ba2b851	0.00496582
234	0x3d1d0315	0.038333017
235	0x3d73af61	0.059493426
236	0x3cd5379f	0.026027499
237	0xbd203cbe	-0.03912043
238	0x3da78475	0.08179561
239	0x3c5a54e8	0.013325907
240	0x3d551824	0.052024975
241	0x3d9f926a	0.07791598
242	0x3c4b050b	0.012391339
243	0x3d979972	0.07402314
244	0xbe08f63d	-0.13375182
245	0x3d4039e9	0.046930227
246	0x3cc7ba1a	0.024380732
247	0x3da914bf	0.0825591
248	0xbc554b2e	-0.0130184125
249	0xbd9ddf1b	-0.077085696
250	0xbde1c74b	-0.1102434
251	0xbe027064	-0.12738186
252	0xbd0601c1	-0.032716516
253	0x3d854cea	0.06508811
254	0x3d2435ed	0.04009049
255	0x3d4f9624	0.050680295

conv2.bias f4 [10]
0	0x3d71b0b4	0.059006408
1	0xbda638c7	-0.08116298
2	0x3d8f6d80	0.07003307
3	0x3ddbdd20	0.107355356
4	0x3d895966	0.067065045
5	0x3e5207bb	0.20510761
6	0x3dc63796	0.09678571
7	0x3e0f3022	0.13983205
8	0x3db7f9c3	0.08983185
9	0xbd8740c7	-0.06604152

conv3.weight f4 [20, 10, 4, 3, 3]
0	0x3c1d078c	0.009584319
1	0xbe35bd3b	-0.17747967
2	0x3d423186	0.04741051
3	0x3b276feb	0.0025548886
4	0xbd282fd2	-0.04106123
5	0xbdae1e0f	-0.08501827
6	0xbd532a63	-0.051554095
7	0xbd21f980	-0.039544582
8	0xbdfb482d	-0.12269626
9	0xbd69c16b	-0.057069223
10	0xbdd17f99	-0.102294154
11	0x3dd8951c	0.10575315
12	0xbd88780a	-0.06663521
13	0xbc330e30	-0.0109286755
14	0x3d32519e	0.043534867
15	0xbc0b964c	-0.00851972
16	0xbbdcea84	-0.0067418236
17	0xbc9ccefb	-0.019141665
18	0x3ae01728	0.0017096745
19	0x3dbfccdf	0.09365248
20	0x3dca4fd4	0.09878507
21	0x3d64a3f8	0.055820435
22	0x3dcfec32	0.101524726
23	0x3d9e4c7f	0.07729434
24	0x3d128af0	0.035777032
25	0xbc826bee	-0.015920606
26	0x3d86d3ed	0.065833904
27	0x3d8481f9	0.06470103
28	0x3cc1614f	0.02360597
29	0xbcd8a845	-0.026447425
30	0xbdccc19c	-0.099978656
31	0xbd88fba9	-0.06688625
32	0xbd82b987	-0.06383043
33	0x3dd8c72c	0.10584864
34	0xbd852845	-0.065018214
35	0x3d8f25a3	0.069896005
36	0x3e38a274	0.18030721
37	0x3c4eada3	0.01261464
38	0xbd4c3a08	-0.04986003
39	0x3dd95e61	0.106137045
40	0xbd91ed9d	-0.07125399
41	0x3dadf530	0.084940314
42	0xbb7be33e	-0.0038435007
43	0x3d49c2af	0.04925793
44	0x3d8ac2a9	0.0677541
45	0xbe6470e0	-0.22308683
46	0x3d5551bb	0.052079897
47	0x3ba5cfbc	0.0050601643
48	0xbe9d37c1	-0.307066
49	0xbca7aa56	-0.020466965
50	0x3d9df482	0.07712652
51	0xbd9c59bc	-0.07634303
52	0x3da2d469	0.0795067
53	0x3cf4c5df	0.029879509
54	0xbdfd1b16	-0.12358682
55	0xbe5a7cf6	-0.21336731
56	0xbda8f796	-0.08250348
57	0xbc29b5d7	-0.010358295
58	0xbd1a7279	-0.037706826
59	0x3dc013e9	0.093787976
60	0xbdbfddd3	-0.093684815
61	0xbd40f759	-0.04711089
62	0xbe097d68	-0.13426745
63	0xbd2b46d1	-0.041815583
64	0xbda42a09	-0.0801583
65	0x3d9739c3	0.07384064
66	0xbd3b9fed	-0.045806814
67	0x3b41d2d8	0.0029575136
68	0x3e3c29d8	0.18375337
69	0xbad9d355	-0.0016618768
70	0x3d6b09d1	0.05738241
71	0x3e112b52	0.14176682
72	0xbe14cb79	-0.14530744
73	0xbe12a97f	-0.1432247
74	0xbd624617	-0.055242624
75	0xbe4ea523	-0.20180182
76	0xbe7be66a	-0.24599615
77	0xbdeb66d5	-0.11494223
78	0xbdf3f5b7	-0.11912101
79	0xbe2e2192	-0.17004994
80	0xbe767af0	-0.24070334
81	0xbd37148b	-0.044697326
82	0xbe1d7378	-0.15376079
83	0xbc588b1c	-0.01321676
84	0x3d9ce0f4	0.07660094
85	0xbc021e10	-0.007941738
86	0x3c2ee512	0.010674732
87	0x3d91b162	0.07113911
88	0x3d0b3e7d	0.03399514
89	0x3db65f3d	0.08904884
90	0x3e0f93a8	0.1402117
91	0x3ca6ec06	0.020376217
92	0xbc8f7582	-0.017512087
93	0x3d8bc36f	0.068243854
94	0xbcec21a7	-0.02882464
95	0xbc4a24e0	-0.012337893
96	0xbd853f59	-0.06506223
97	0xbc91cc86	-0.01779772
98	0xbd25ac33	-0.040447425
99	0x3d37cd23	0.044873368
100	0x3db85188	0.08999926
101	0x3d040c9b	0.032238584
102	0xbc6eee1b	-0.014583136
103	0x3c99a877	0.018757088
104	0x3e0bd4ce	0.13655397
105	0x3df6947a	0.120400384
106	0x3df58970	0.11989105
107	0x3d7c9809	0.06166843
108	0x3d8d266b	0.06892093
109	0x3d782d39	0.060590003
110	0x3d6d0a62	0.05787123
111	0xbd63cc22	-0.055614598
112	0x3dcbdc8f	0.099541776
113	0x3b23fd70	0.0025022887
114	0xbd075bcb	-0.033046525
115	0xbc93b5ce	-0.018031027
116	0x3c539dcb	0.012916039
117	0xbdc6f316	-0.09714334
118	0x3d4699bc	0.048486456
119	0x3cf79e1c	0.03022676
120	0xbd35276d	-0.044227052
121	0xbd95f97a	-0.073229745
122	0xbd49a645	-0.049230833
123	0xbd6edf2c	-0.058318302
124	0xbd368944	-0.0445645
125	0x3ce4469d	0.027865702
126	0x3d8df7a3	0.069319986
127	0xbbe3b7d4	-0.0069494043
128	0xbd07314a	-0.03300599
129	0xbd90e398	-0.0707466
130	0x3c6ed576	0.01457726
131	0x3d1f147d	0.0388379
132	0xbd9a9504	-0.07547954
133	0x3dbef16a	0.0932339
134	0xbdac35cd	-0.08408699
135	0xbcb1ac6f	-0.021688668
136	0xbc919582	-0.017771486
137	0x3c041e4f	0.008063867
138	0xbd0733a2	-0.033008225
139	0xbc84ff08	-0.01623489
140	0xbda12398	-0.07868117
141	0x3d24ee88	0.040266544
142	0xbd0df1b2	-0.034654327
143	0xbc9dcbaa	-0.019262154
144	0x3d53c0db	0.051697593
145	0xbd4054e9	-0.046955977
146	0xbdbd9ca0	-0.092583895
147	0xbd590ec0	-0.052992582
148	0xbd10621b	-0.03524981
149	0xbc37634a	-0.011193106
150	0xbd1efdc9	-0.038816247
151	0x3d091a6c	0.033472463
152	0xbd87116d	-0.065951206
153	0xbc4287de	-0.011873214
154	0x3d75085b	0.05982242
155	0x3ce465a2	0.027880494
156	0xbe799221	-0.2437215
157	0xbd01a72c	-0.03165357
158	0x3dda0fcb	0.106475435
159	0x3d0c00b3	0.034180354
160	0x3cd9604c	0.026535176
161	0x3d6c1ffc	0.05764769
162	0x3c945b33	0.018109893
163	0xbe5afe25	-0.21386011
164	0xbe08acb2	-0.13347128
165	0x3dadf3fd	0.08493803
166	0xbe049006	-0.12945566
167	0x3cf9cedf	0.030494152
168	0xbd7b1a61	-0.061304454
169	0xbde2e264	-0.11078337
170	0x3d049c18	0.032375425
171	0xba590442	-0.00082785275
172	0x3baa71f7	0.005201574
173	0x3e367dd9	0.17821445
174	0xbcf75934	-0.030193903
175	0xbce8d21e	-0.028420504
176	0x3e064a00	0.13114166
177	0x3db6d3fa	0.0892715
178	0x3d9935ad	0.07480941
179	0x3dd94fdc	0.10610935
180	0x3e0cfbdc	0.13767952
181	0xbb36bfee	-0.0027885395
182	0xbdc3e5c9	-0.095653124
183	0xbd4a5722	-0.049399503
184	0xbe543464	-0.2072311
185	0xbd638f6a	-0.055556692
186	0xbe1e84c8	-0.1548034
187	0x3ce07d66	0.027403545
188	0xbddb8ced	-0.10720239
189	0x3db171f0	0.0866431
190	0xbd9fb24a	-0.07797678
191	0x3d615dc2	0.055021055
192	0x3e2f9955	0.17148335
193	0x3b9b3f69	0.0047377837
194	0xbe0f93a3	-0.14021163
195	0xbd0a2035	-0.03372212
196	0x3c3465a6	0.011010563
197	0x3cf0b67b	0.029383888
198	0x3e6a599c	0.22885746
199	0x3d9029ee	0.070392475
200	0x3b9252e1	0.0044654463
201	0x3e0982b5	0.13428767
202	0xbda703ae	-0.08154999
203	0xbd7c0a82	-0.06153346
204	0xbc5f9cee	-0.013648255
205	0x3a87f6cc	0.0010373234
206	0x3c9646b0	0.018344253
207	0x3deac21b	0.11462804
208	0x3d14a262	0.036287673
209	0xbe06a0f0	-0.1314733
210	0x3e2d1a59	0.16904582
211	0xbb38b629	-0.0028184748
212	0xbcf322fa	-0.029679764
213	0x3dcfe4f5	0.10151092
214	0x3d83a4f2	0.06427945
215	0x3b2ac56e	0.0026057619
216	0x3e611763	0.21981578
217	0x3cf7ffc9	0.030273335
218	0x3b6983c4	0.0035631517
219	0x3dad3888	0.08458048
220	0xbca6f7d2	-0.020381842
221	0x3c3b85ff	0.011445521
222	0xbda50d8e	-0.08059226
223	0xbd47743a	-0.048694827
224	0x3d8fccf8	0.070215166
225	0x3ada64dd	0.001666214
226	0x3db7a53f	0.08967065
227	0xbc5f664d	-0.01363523
228	0x3d66e49f	0.056370374
229	0x3cae0dd8	0.021246836
230	0x3c866dd0	0.016409785
231	0x3e14b368	0.14521563
232	0x3ce9f1a2	0.028557602
233	0x3d71c113	0.05902202
234	0xbcc01f9a	-0.023452569
235	0xbe26cb1b	-0.16288416
236	0xbe0fd9f1	-0.14047982
237	0xbe319c4d	-0.1734478
238	0xbe80c06a	-0.251468
239	0xbe2fad22	-0.17155889
240	0xbe0b7500	-0.1361885
241	0xbe14c158	-0.1452688
242	0xbe8448ee	-0.2583689
243	0xbd2e9f03	-0.042632114
244	0xbdaa258b	-0.08307942
245	0x3de68064	0.11254957
246	0x3decf1c4	0.11569551
247	0x3d2d121e	0.042253606
248	0xbcce0960	-0.025150955
249	0x3d27e2eb	0.04098789
250	0xbc3664af	-0.011132403
251	0x3c33c3ee	0.010972006
252	0x3e3c148e	0.18367216
253	0x3dc3227b	0.09528061
254	0xbdd56399	-0.10419387
255	0xbd3319fb	-0.04372595

conv3.bias f4 [20]
0	0x3d40322a	0.04692284
1	0x3d8e2ee6	0.06942539
2	0x3cfc8d08	0.030828968
3	0xbd8ec5ab	-0.06971296
4	0x3d025bcd	0.03182583
5	0xbd302fe3	-0.04301442
6	0xbcc277a6	-0.023738693
7	0xbd661f7a	-0.056182362
8	0xbd8ee577	-0.06977361
9	0x3d33d321	0.04390252
10	0xbd33aa1f	-0.043863412
11	0xbd84d3d3	-0.06485715
12	0x3cd8d1f0	0.026467294
13	0xbdb8859a	-0.090098575
14	0x3cb184a5	0.021669695
15	0xbcb850c8	-0.022499457
16	0xbd27debf	-0.04098391
17	0x3d5cb997	0.05388793
18	0xbc94bbb6	-0.018155914
19	0x3d37daf4	0.044886544

conv4.weight f4 [20, 20, 4, 3, 3]
0	0xbdd125f6	-0.102123186
1	0xbdb088e1	-0.086198576
2	0x3cfedcbb	0.031111112
3	0xbda6279a	-0.08113022
4	0xbc91efcf	-0.017814545
5	0xbd89bbd4	-0.067252785
6	0xbc1420bf	-0.00904101
7	0xbdc95a46	-0.098316714
8	0xbe387198	-0.18012083
9	0x3d3ef0c1	0.04661632
10	0x3d0c589d	0.034264196
11	0xbcfc788a	-0.030819196
12	0x3e1ba460	0.15199423
13	0xbc90cfb5	-0.017677167
14	0xbdae3dae	-0.08507858
15	0x3cc1fec0	0.023681045
16	0x3dc6b371	0.097021945
17	0x3e2ec003	0.17065434
18	0x3cc4f2c4	0.02404154
19	0xbd00d4ce	-0.031452946
20	0x3c97e043	0.018539554
21	0x3b659bb7	0.003503544
22	0xbe2f6ae8	-0.17130625
23	0xbddc1f3a	-0.107481435
24	0x3d2db536	0.042409144
25	0xbe34637e	-0.17616078
26	0xbd40c820	-0.047065854
27	0xbbda1cff	-0.0066562886
28	0x3dde3153	0.108492516
29	0x3dc0c545	0.09412626
30	0xbdc58d1f	-0.09646057
31	0xbd197d7d	-0.03747319
32	0xbc0023fc	-0.007821079
33	0xbe3e0b8e	-0.18559095
34	0xbe64f8a7	-0.22360478
35	0xbd64a95c	-0.055825576
36	0xbd7d6867	-0.061867144
37	0xbbd5d5eb	-0.006525745
38	0x3bda2099	0.006656718
39	0x3dd60258	0.10449666
40	0x3d3cc327	0.04608455
41	0xbe28785b	-0.16452162
42	0x3d0820f1	0.03323454
43	0x3d9dcb3e	0.07704781
44	0xbe1450c2	-0.14483932
45	0xbc20ce79	-0.009814852
46	0xbda9aa04	-0.08284381
47	0xbd1e5d71	-0.03866333
48	0x3da9e171	0.08294953
49	0xbdeabf75	-0.11462299
50	0xbe0a2dbe	-0.13494012
51	0x3e131b0a	0.14365783
52	0x3c0b6cef	0.0085098585
53	0x3b637f17	0.0034713203
54	0x3da552c8	0.0807243
55	0x3dc7f3c1	0.09763289
56	0x3da4fee8	0.08056432
57	0xbdb0b3d4	-0.086280495
58	0xbdf44954	-0.11928049
59	0x3d057858	0.032585472
60	0xbdfdc207	-0.123905234
61	0xbe395069	-0.1809708
62	0xbce4c77f	-0.027927158
63	0x3d04c867	0.03241768
64	0x3c0e1ac4	0.008673374
65	0xbd08367b	-0.03325508
66	0x3b1728ba	0.0023065046
67	0xbcb384b8	-0.021913871
68	0xbd01f1a6	-0.031724595
69	0xbbaec898	-0.005333971
70	0xbe6aa8f1	-0.22916009
71	0xbe05219e	-0.13001105
72	0x3d60c14a	0.054871835
73	0xbd1aba3c	-0.037775263
74	0xbda61c2e	-0.081108436
75	0xbcb50bd4	-0.022100367
76	0xbded6783	-0.11592009
77	0xbde376d1	-0.11106647
78	0x3c984dd3	0.018591797
79	0xbbe699a1	-0.007037357
80	0x3ce9413f	0.028473495
81	0xbca487a4	-0.02008421
82	0xbdb99452	-0.09061493
83	0xbdc9e2b2	-0.09857692
84	0xbdee775e	-0.11643861
85	0xba9877cf	-0.0011632385
86	0x3bece49f	0.007229402
87	0xbdb1f160	-0.08688617
88	0xbd0ddb83	-0.03463317
89	0xbc8c7b0e	-0.01714852
90	0xbaa8c565	-0.0012876211
91	0xbd025de2	-0.031827815
92	0xbd94f7c4	-0.0727382
93	0xbd87c718	-0.06629771
94	0x3d88daa2	0.06682326
95	0x3d4d703b	0.05015586
96	0x3d353213	0.044237208
97	0x3d4649b6	0.04841014
98	0xbde9febf	-0.11425542
99	0xbe040cb7	-0.12895475
100	0x3d165467	0.036701586
101	0x3d5071a5	0.05088963
102	0xbe05b4d3	-0.1305726
103	0xbdf6645d	-0.120308615
104	0xbd866be6	-0.06563549
105	0xbdcf09f1	-0.10109318
106	0x3bf0e2b8	0.0073512457
107	0xbce7f4ef	-0.028315036
108	0x3d609aec	0.054835245
109	0x3a844d88	0.0010093907
110	0x3d846efa	0.064664796
111	0x3de83a73	0.11339273
112	0x3dec755f	0.11545824
113	0x3db5a79d	0.0886986
114	0xbd873249	-0.06601388
115	0xbc32df42	-0.010917487
116	0xbc97c562	-0.018526737
117	0xbda64ec0	-0.08120489
118	0xbc77a429	-0.015114822
119	0xbc88e9b2	-0.016712997
120	0xbd14f054	-0.036362007
121	0x3c379a19	0.011206173
122	0x3d3f1195	0.046647627
123	0xbd286c25	-0.04111876
124	0xbda9667e	-0.08271502
125	0x3d3bac93	0.045818876
126	0xbd744a85	-0.05964138
127	0xbca18516	-0.01971678
128	0xbdb985e7	-0.09058743
129	0xbc1d68fc	-0.00960755
130	0xbd35f87a	-0.04442642
131	0xbd8ec68b	-0.06971463
132	0xbd86c99b	-0.06581422
133	0x3d90b076	0.07064907
134	0x3dcf6e1d	0.10128424
135	0x3d0bc2f9	0.034121487
136	0xbd974c91	-0.07387651
137	0x3c43cfc8	0.011951394
138	0x3ddac4ba	0.10682054
139	0xbdbde283	-0.09271719
140	0x3d90f368	0.07077676
141	0x3db33463	0.08750226
142	0xbd6311f9	-0.055437062
143	0xbd172aae	-0.036905937
144	0xbe0cf90e	-0.13766882
145	0xbc3eacad	-0.011637849
146	0xbbd7d764	-0.006586956
147	0xbd364ba4	-0.04450573
148	0x3b874e42	0.004129202
149	0xbba4a2d3	-0.005024293
150	0x3d863385	0.06552795
151	0xbd8297d0	-0.06376612
152	0x3d3b327a	0.045702435
153	0x3d866ceb	0.06563743
154	0xbd1bdd9f	-0.03805315
155	0x3cb695a0	0.022288144
156	0x3b25141f	0.0025188995
157	0xbc9b7040	-0.018974423
158	0x3dc1573e	0.09440468
159	0xbda2f1da	-0.07956286
160	0xbda9ab21	-0.082845934
161	0xbae904d0	-0.0017777923
162	0x3cb75313	0.02237848
163	0x3d0f564a	0.0349944
164	0x3cff9d19	0.03120284
165	0xbc5e725a	-0.013577068
166	0x3d0130ea	0.03154079
167	0xbd252537	-0.040318694
168	0xbd12ac6f	-0.035808977
169	0xbccd7046	-0.02507795
170	0xbd4d476d	-0.050116945
171	0x3d35a7a8	0.044349343
172	0xbd9c7010	-0.07638562
173	0xbe106446	-0.14100751
174	0xbd0720bd	-0.032990206
175	0xbd117f73	-0.035521936
176	0x39712978	0.00022999
177	0x3dcd98db	0.100389205
178	0x3e2150af	0.15753435
179	0xbc8b4ab3	-0.017003393
180	0x3d58c4cb	0.05292205
181	0x3d8a6639	0.06757779
182	0x3da6c1a9	0.081424065
183	0x3b99f7d9	0.004698735
184	0xbbcc3dd2	-0.0062329555
185	0xbd6de835	-0.058082778
186	0xbc87a300	-0.016557217
187	0x3d180900	0.037117958
188	0xbc0e331b	-0.008679177
189	0xbd3b9134	-0.045792773
190	0xbdd8b80b	-0.105819784
191	0x3ccae49b	0.02476721
192	0xbc8708b7	-0.016483648
193	0x3bafa756	0.005360524
194	0x3d675136	0.056473933
195	0x39a88712	0.00032144092
196	0xbd2779a2	-0.040887482
197	0x3bcfb030	0.006338142
198	0xbb2ea424	-0.0026648128
199	0x3d11db32	0.03560943
200	0xbb010850	-0.0019688793
201	0xbbe7c623	-0.0070731803
202	0xbdc2d241	-0.09512759
203	0xbccf236a	-0.025285441
204	0xbd99532e	-0.074865684
205	0xbc8543fc	-0.016267769
206	0xbc29081f	-0.010316878
207	0xbd66fd76	-0.056394063
208	0xbd7a40de	-0.06109702
209	0xbca106c6	-0.01965655
210	0xbdc23549	-0.094828196
211	0x3d3065b8	0.043065757
212	0x3c817b5c	0.015805893
213	0xbd91caf0	-0.071187854
214	0x3c8c085d	0.017093832
215	0x3d15b7a4	0.036552086
216	0xbceb0413	-0.028688466
217	0x3b836645	0.004009994
218	0xbd06688b	-0.032814544
219	0xbbeb4ab7	-0.0071805376
220	0x3cdca57c	0.026934378
221	0x3c6a24b4	0.014290977
222	0x3c00b614	0.007855911
223	0x3dabe927	0.0839408
224	0x3d8dd752	0.06925835
225	0xbc1a65e7	-0.0094237095
226	0xbd0cd08c	-0.034378573
227	0xbc48d681	-0.012258173
228	0x3cdd0ed1	0.026984604
229	0x3d869707	0.06571775
230	0x3c3baf49	0.011455365
231	0xbdd4dae3	-0.10393312
232	0xbde5e703	-0.112257026
233	0xbd61531c	-0.0550109
234	0xbd6d02ff	-0.057864185
235	0xbdf740af	-0.12072884
236	0xbd398de9	-0.04530135
237	0xbd0fc2bd	-0.035097826
238	0xbc1055cb	-0.008809517
239	0xbd904fe1	-0.07046486
240	0xbd4068e3	-0.046975028
241	0xbd0b2bb6	-0.033977233
242	0xbd3a5f6c	-0.045501158
243	0x3db92c1d	0.09041617
244	0x3c16ce30	0.009204432
245	0xbd4f587f	-0.050621506
246	0x3d34dc70	0.044155538
247	0xbbcff072	-0.006345802
248	0xbce18c0b	-0.027532598
249	0xbbd8a785	-0.0066117668
250	0x3d4bf3ce	0.049793057
251	0x3d0477af	0.0323407
252	0x3ce7a87b	0.02827858
253	0xbc5a7289	-0.013332971
254	0xbcd1ad3f	-0.025595305
255	0xbca7899a	-0.020451356

conv4.bias f4 [20]
0	0xbc479d06	-0.012183433
1	0x3a9452bb	0.001131616
2	0xbc866a78	-0.01640819
3	0xbd821f20	-0.06353593
4	0xbd8c7b2f	-0.06859433
5	0x3d4cbf2c	0.049987003
6	0x3d915ca8	0.07097751
7	0x3c2afcca	0.010436246
8	0x3d66d9bc	0.05635999
9	0xbc6b80c9	-0.0143739665
10	0xbd58bb7e	-0.05291318
11	0xbce73730	-0.028224558
12	0xbc613f4c	-0.013748001
13	0x3bfea8df	0.007771596
14	0xbd2d6595	-0.042333204
15	0x3c8aea99	0.016957568
16	0xbdb86044	-0.09002736
17	0xbcff7527	-0.031183792
18	0x3c6d0335	0.014466097
19	0x3d00b1b0	0.031419456

fc1.weight f4 [50, 1280]
0	0xbc14ea4d	-0.009089065
1	0xbca8f6c0	-0.020625472
2	0x3d285fcb	0.04110698
3	0xbc84cef2	-0.01621196
4	0xbb078cc4	-0.0020683268
5	0xbb3efc16	-0.0029141954
6	0xbd35ea3c	-0.044412836
7	0x3d3dfc0e	0.046382956
8	0x3c8acf13	0.016944444
9	0xbcadcb98	-0.021215245
10	0xbd981077	-0.074250154
11	0x3d269c5a	0.040676452
12	0xbd0cc2b9	-0.03436539
13	0xbc739476	-0.014866939
14	0x3c0fe4e9	0.008782604
15	0x3bd1dcac	0.00640448
16	0x3c31f417	0.010861418
17	0x3bb0501a	0.0053806426
18	0x3c409ecd	0.011756611
19	0x3aa319a7	0.0012443558
20	0x3c9b4d4f	0.018957762
21	0x3b694992	0.003559683
22	0xbcfde37a	-0.030992258
23	0xbcf97b2e	-0.030454244
24	0xbc31ba8c	-0.010847699
25	0xbccb85eb	-0.02484413
26	0xbc48a22b	-0.012245695
27	0xbc4fa058	-0.012672506
28	0xbb0a4e33	-0.002110374
29	0x3d0cde8d	0.03439193
30	0xbc9bd5f1	-0.019022914
31	0xbd0ba46e	-0.03409236
32	0xbbf3f32f	-0.007444761
33	0xbc871450	-0.016489178
34	0xbd23a55f	-0.039952632
35	0xbd007ec1	-0.031370882
36	0x3d65d9f1	0.05611605
37	0x3cbe5ecf	0.023238568
38	0xbc9ae027	-0.018905712
39	0xbc113282	-0.00886214
40	0x3b020363	0.0019838444
41	0x3bdbf266	0.0067122458
42	0xbc29cd28	-0.0103638545
43	0x3c9389bb	0.018010011
44	0x3c93d50e	0.018045928
45	0x3d8e2b9a	0.0694191
46	0x3d19e7f3	0.03757472
47	0x3c56c37d	0.0131081315
48	0xbbe36c78	-0.0069404207
49	0xbb6686e0	-0.0035175607
50	0x3d4f5766	0.05062046
51	0x3d2bc813	0.041938853
52	0xbd17a5dd	-0.037023414
53	0xbcd3ca62	-0.02585334
54	0xbd88f8d6	-0.06688087
55	0x3c92853d	0.017885799
56	0x3c0a1e8f	0.008430137
57	0x3c4f27fb	0.012643809
58	0xbd144186	-0.0361953
59	0x3cab0c52	0.020879898
60	0x3c1f04d4	0.009705741
61	0x3c97935d	0.018502885
62	0x3d20af33	0.039229583
63	0xbce993a5	-0.028512785
64	0x3c902d0f	0.01759961
65	0x3aa580c9	0.0012626882
66	0xbc0c99e0	-0.0085816085
67	0xbd2fd16c	-0.04292433
68	0x3b141e95	0.0022601236
69	0x3b59bbf6	0.0033223606
70	0xbcd16bdf	-0.025564132
71	0xbdb8cdf8	-0.090236604
72	0xbd279ce2	-0.0409211
73	0xbdb86f18	-0.090055645
74	0xbdfede78	-0.12444776
75	0xbdb5f8e7	-0.08885365
76	0x3c486702	0.01223159
77	0xbca6d926	-0.020367216
78	0xbdd9c52a	-0.10633309
79	0xbd24843e	-0.04016518
80	0x3ced76a7	0.028987242
81	0xbd83a74d	-0.064283945
82	0xbd704738	-0.05866167
83	0xbd37aa17	-0.044839945
84	0x3d2f6826	0.042823933
85	0x3da5ab59	0.080893226
86	0x3bd5f770	0.006529741
87	0xbd9bb924	-0.07603672
88	0xbab9cf85	-0.0014176226
89	0xbb91e550	-0.004452385
90	0x3d02f322	0.03197015
91	0xbd15007b	-0.03637741
92	0xbc582c53	-0.0131941615
93	0xbc6be2a8	-0.014397301
94	0xbd42a1bf	-0.047517534
95	0x3ce0beab	0.027434668
96	0xbc30c644	-0.010789458
97	0x3c92b597	0.017908854
98	0x3d0bdbb1	0.03414506
99	0x3cca472b	0.024692139
100	0xbdef5103	-0.11685374
101	0x3d5ea8c0	0.05436015
102	0x3c8422da	0.0161299
103	0xbd708a9a	-0.05872593
104	0xbd90eaf6	-0.07076065
105	0x3b6eeae5	0.0036455926
106	0xbb56df76	-0.0032787002
107	0xbd02061f	-0.03174412
108	0xbc8db596	-0.017298501
109	0x3d31ae74	0.043379262
110	0x3d22abfa	0.03971479
111	0x3cd0342e	0.025415506
112	0x3c96cb93	0.018407619
113	0xbd2cfe1e	-0.042234533
114	0x3ceff455	0.029291311
115	0x3d112140	0.0354321
116	0xbd1b20a8	-0.03787294
117	0x3b55c865	0.0032620665
118	0xbc961d29	-0.018324452
119	0x3ceab295	0.028649608
120	0xbdb15446	-0.08658652
121	0xbd399606	-0.04530909
122	0xbcb51f71	-0.022109719
123	0xbc06b919	-0.008222842
124	0xbd17479a	-0.03693352
125	0xbe2eb6f5	-0.1706198
126	0xbd27b112	-0.04094035
127	0x3b0d1d2e	0.0021532285
128	0xbd2c53a4	-0.042071953
129	0xbe0995ea	-0.13436094
130	0xbdcd3dcd	-0.10021553
131	0xbbf1ba73	-0.007376963
132	0x3cfc6ec4	0.030814536
133	0x3cd77d50	0.02630487
134	0xbd956355	-0.07294337
135	0xbd2a38f0	-0.041558206
136	0xbb1878c4	-0.0023265341
137	0xbcbf5162	-0.023354236
138	0xbcb2d301	-0.02182913
139	0xbd9f4202	-0.07776262
140	0x3d14d281	0.036333565
141	0xbcab6ccf	-0.020925907
142	0xbd6455ed	-0.055746008
143	0x3b0e0fdc	0.0021676933
144	0xbd8cd9c6	-0.068774745
145	0xbda16aa8	-0.07881671
146	0xbdf48dfa	-0.119411424
147	0xbc4bdbb2	-0.012442516
148	0xbd3955c3	-0.045247804
149	0xbb1a31f7	-0.0023528317
150	0x3cb78f22	0.022407118
151	0xbcc35448	-0.0238439
152	0xbd41096c	-0.047128126
153	0x3cb54520	0.022127688
154	0x3c494fea	0.012287119
155	0xbd09cd9e	-0.033643357
156	0x3a9d7db4	0.0012015612
157	0xbbd8bfc7	-0.0066146585
158	0x3c887f51	0.016662272
159	0xbbe723a3	-0.007053809
160	0x3c980d05	0.018560896
161	0xbcd9796b	-0.026547154
162	0xbd01f3a8	-0.03172651
163	0x3c8dd7f6	0.017314892
164	0xbd16e7b1	-0.036842052
165	0x3d0a108b	0.033707183
166	0xb8b6d4b0	-8.7180524e-05
167	0xbcf5fdaf	-0.030028192
168	0xbb5df453	-0.0033867552
169	0x3c0c282c	0.0085545
170	0x3d503e88	0.050840884
171	0xbcc2c019	-0.02377324
172	0xbb8e05ea	-0.004334201
173	0xbce9e734	-0.028552629
174	0x3d285833	0.04109974
175	0x3a07c43d	0.0005179083
176	0xbb459f66	-0.0030154823
177	0xbccb3130	-0.024803728
178	0xb9ee9e0a	-0.00045512646
179	0xbcccc96b	-0.024998387
180	0xbda4ebea	-0.080528095
181	0x3d735389	0.059405837
182	0x3cfe2f30	0.03102836
183	0xbd4c226e	-0.049837522
184	0xbda98aea	-0.08278449
185	0x3d32f16f	0.04368728
186	0xbd57a236	-0.05264493
187	0xbdea801e	-0.11450218
188	0xbd2d4063	-0.042297732
189	0xbdba0c03	-0.09084322
190	0xbd12d95b	-0.035851818
191	0xbc909348	-0.017648354
192	0xba8aa9d4	-0.0010579177
193	0xbd3b5009	-0.045730624
194	0xbcd004b5	-0.02539287
195	0xbcaf761f	-0.02141863
196	0xbd294d07	-0.041333225
197	0xbda98501	-0.082773216
198	0xbd0ab628	-0.033865124
199	0xbcc0ecf3	-0.023550486
200	0xbd676ddf	-0.056501266
201	0xbd255c03	-0.040370952
202	0xbc233d57	-0.009963355
203	0x3ad038c0	0.0015886053
204	0x3d035eee	0.032072954
205	0x3d64cf97	0.055862036
206	0x3badf97a	0.005309281
207	0xbcbec4c4	-0.023287185
208	0x3d9d4814	0.076797634
209	0xbc7159f4	-0.014730919
210	0xbccca09b	-0.024978926
211	0x3bbcebd7	0.005765419
212	0xbce83ece	-0.02835026
213	0x3cc13666	0.02358551
214	0xbbe60640	-0.007019788
215	0xbd1b0631	-0.0378477
216	0xbd64fac5	-0.055903215
217	0xbb0d7e20	-0.002159007
218	0x3b673b22	0.0035283049
219	0x3d4945db	0.049138885
220	0x3c8ed841	0.017437102
221	0xbd94909f	-0.07254147
222	0xbd9019c4	-0.070361644
223	0x3d91379d	0.070906855
224	0xbd23bf2e	-0.039977245
225	0xbcf600d1	-0.030029686
226	0xbd8cccb4	-0.068749815
227	0xbc9f9fd2	-0.019485388
228	0xbd3affa7	-0.045653965
229	0xbdb4b9b8	-0.088244855
230	0xbdaef5a5	-0.08542947
231	0xbcf9791e	-0.030453261
232	0x3d2eb27a	0.042650677
233	0xbc2f3069	-0.010692694
234	0xbc7a0812	-0.015260713
235	0x3c12aced	0.0089523615
236	0x3d4b65e1	0.049657706
237	0x3d3c56da	0.045981266
238	0xbc78433a	-0.015152747
239	0xbc46e8f0	-0.012140498
240	0x3c366860	0.011133283
241	0xbdb54a66	-0.08852081
242	0x3cea6e0c	0.028616928
243	0x3d7f36cc	0.062308118
244	0xbcc10bfb	-0.023565283
245	0xbdbcd736	-0.09220736
246	0xbd7eea20	-0.062234998
247	0xbd799752	-0.060935326
248	0xbd9d7b83	-0.076895736
249	0xbd23a57e	-0.039952748
250	0xbc60c8c5	-0.013719742
251	0xbafe6250	-0.0019407962
252	0xbd539165	-0.05165233
253	0xba139bf9	-0.0005630847
254	0x3d542652	0.051794358
255	0x3d94b17e	0.072604164

fc1.bias f4 [50]
0	0x3c091c2f	0.008368536
1	0xbd068d8a	-0.032849826
2	0x3c5f740c	0.013638508
3	0x3cae8150	0.021301895
4	0xbae83217	-0.0017715123
5	0xbac4a44d	-0.0015002579
6	0xbc4379ab	-0.011930863
7	0xbc833b79	-0.01601957
8	0x3d1bd44f	0.03804427
9	0xbc3bb6ea	-0.011457184
10	0x3cb5c432	0.02218828
11	0xbcb1fa4c	-0.021725796
12	0x3cb8d653	0.022563135
13	0xbb72794d	-0.003699857
14	0x3d0e7138	0.034775943
15	0xbd069196	-0.032853685
16	0xbcb95f91	-0.022628577
17	0x3ca199ee	0.01972672
18	0x3d06500f	0.032791194
19	0x3c909ab2	0.01765189
20	0x3c536cb0	0.012904331
21	0xbc267388	-0.010159381
22	0x3ac1ad14	0.0014776313
23	0x3c461e8e	0.012092246
24	0xbc16ebb1	-0.009211467
25	0xbca2cabf	-0.019872067
26	0x3c0c37cb	0.008558224
27	0xbc9b23a8	-0.0189379
28	0xbc5d63c4	-0.0135125555
29	0x3c66c18c	0.014084231
30	0xbca7ebd1	-0.020498188
31	0x3c84ea1e	0.016224917
32	0xbc3fd4e1	-0.011708469
33	0x3c8183dc	0.015809946
34	0x39b2e7f1	0.00034123615
35	0xbb9611a5	-0.00457974
36	0xbc81d22d	-0.01584729
37	0x3c9f7d8f	0.01946905
38	0xbcefcf25	-0.029273579
39	0x3cd31f97	0.0257719
40	0xbd04966d	-0.03237002
41	0x3aeef73f	0.0018231644
42	0xbc976443	-0.018480426
43	0xbcd5e159	-0.02610843
44	0xbcb2b9c2	-0.021817092
45	0x3cba336d	0.0227296
46	0x3c03b794	0.008039374
47	0x3cf709d5	0.030156055
48	0xbba3df33	-0.0050009727
49	0xbccc3f07	-0.024932398

fc2.weight f4 [10, 50]
0	0xbe4136e7	-0.188686
1	0xbbee5cca	-0.007274245
2	0xbe964a45	-0.29353538
3	0xbe4f1c18	-0.2022556
4	0x3e3fc11c	0.18726009
5	0x3e365ea3	0.17809539
6	0x3e52185d	0.20517106
7	0x3e909b4d	0.28243485
8	0x3eb073ed	0.34463444
9	0xbe2049f9	-0.15653218
10	0x3e347d1d	0.17625852
11	0xbe03fccc	-0.12889403
12	0x3e686ed8	0.22698534
13	0xbdbe3e72	-0.09289254
14	0xbd909cb5	-0.070611395
15	0xbe144bdc	-0.14482063
16	0x3ef6ab2b	0.48177466
17	0xbe1874f7	-0.14888369
18	0xbe1ec523	-0.15504889
19	0x3e338a9c	0.17533344
20	0xbc1cc579	-0.0095685655
21	0xbe597e4a	-0.21239582
22	0xbe816a44	-0.25276387
23	0x3e8b3e68	0.2719605
24	0x3e77e9ba	0.24210253
25	0xbe1a0fda	-0.1504511
26	0xbde25367	-0.11051064
27	0x3d9177bf	0.07102918
28	0xbe31279a	-0.17300263
29	0x3ea871fb	0.3289946
30	0xbe9f04a9	-0.31058243
31	0x3e6c7862	0.23092797
32	0xbdf9d635	-0.1219906
33	0x3e4a95ee	0.19783756
34	0x3e6d351e	0.23164794
35	0xbe7542eb	-0.23951308
36	0xbddf28aa	-0.10896428
37	0xbd88895d	-0.06666825
38	0xbe3f5d6e	-0.18687984
39	0xbe6ae4cd	-0.22938843
40	0xbc6345b6	-0.013871601
41	0x3e85d50d	0.26139107
42	0xbe402470	-0.187639
43	0xbe765f7a	-0.24059859
44	0xbe66f5f1	-0.22554757
45	0xbe844038	-0.25830245
46	0xbe1dd1af	-0.15412019
47	0xbe7395c3	-0.23787598
48	0xbe134d47	-0.14384948
49	0xbe48cf0d	-0.19610234
50	0xbe70b0a4	-0.23504883
51	0xbe56e412	-0.2098544
52	0xbe420a47	-0.18949233
53	0xbe03064d	-0.12795372
54	0x3cb53eb7	0.022124631
55	0x3e8ca267	0.27467653
56	0xbe69e9c1	-0.22843076
57	0xbdf1b52b	-0.11802133
58	0x3ea93696	0.33049458
59	0xbe1f836b	-0.15577476
60	0x3e145912	0.14487103
61	0x3e62845e	0.22120807
62	0xbe48a92d	-0.19595785
63	0x3e53f715	0.20699723
64	0x3e28aac1	0.16471387
65	0xbe546509	-0.20741667
66	0xbd904d46	-0.07045989
67	0xbe399a4f	-0.1812527
68	0x3e635bca	0.22202983
69	0xbe2cd635	-0.16878588
70	0xbe1ffbd6	-0.15623412
71	0x3e78923d	0.24274535
72	0xbd42eff8	-0.047592133
73	0xbe81c0c6	-0.25342387
74	0x3e607481	0.21919443
75	0x3e459b2d	0.19297476
76	0xbe68440c	-0.22682208
77	0x3e70efb2	0.23528937
78	0xbde3dd54	-0.11126199
79	0xbe23c434	-0.15992814
80	0x3e463716	0.19356951
81	0xbe38fb97	-0.18064724
82	0xbea8309e	-0.32849592
83	0x3e04a364	0.12952954
84	0xbe453835	-0.19259723
85	0xbc8212f4	-0.015878178
86	0xbe85bcc1	-0.2612057
87	0x3e8b08fc	0.27155292
88	0xbd14151a	-0.036152937
89	0xbe6b8939	-0.23001565
90	0x3d0a0ddb	0.03370462
91	0xbe6b4269	-0.22974552
92	0xbe9aae9f	-0.3021135
93	0xbe32d790	-0.17465043
94	0x3e47df38	0.19518745
95	0x3e80e72d	0.25176373
96	0xbdd1bd9a	-0.10241242
97	0x3e271237	0.16315542
98	0x3e06b358	0.13154352
99	0xbddbbe70	-0.107296824
100	0xbe24b51a	-0.1608471
101	0xbdebbb2c	-0.115103096
102	0xbda9ff59	-0.08300657
103	0xbe0628ca	-0.13101497
104	0xbe478bc5	-0.19486912
105	0x3e8c2fab	0.27380118
106	0x3e7f3cb5	0.24925502
107	0x3e75f578	0.2401942
108	0xbe15c3c6	-0.14625463
109	0x3e471047	0.19439803
110	0xbe21da41	-0.15805914
111	0xbe755daf	-0.23961519
112	0xbdee2a25	-0.11629132
113	0xbe09ad88	-0.13445103
114	0xbe3c30b6	-0.18377957
115	0x3e7f13b6	0.24909863
116	0xbcbfbd36	-0.023405652
117	0xbd98823c	-0.07446715
118	0xbdb0ac78	-0.08626646
119	0xbe0c662d	-0.13710852
120	0x3e8bbe69	0.2729371
121	0xbd601b6d	-0.054713655
122	0xbe1a6d24	-0.15080696
123	0xbd5effbf	-0.054443117
124	0xbe6901c6	-0.22754583
125	0xbda7683a	-0.081741765
126	0xbd71e6d6	-0.059058033
127	0x3e6be632	0.23037031
128	0xbdc93f85	-0.098265685
129	0x3e649b31	0.22324826
130	0x3e449914	0.1919902
131	0xbe5d977a	-0.21639815
132	0xbdafbdca	-0.08581121
133	0x3e21e911	0.15811564
134	0x3e5e35b6	0.21700177
135	0x3e78d023	0.24298148
136	0xbd87390a	-0.06602676
137	0xbe085247	-0.13312636
138	0xbdf83db4	-0.12121144
139	0xbe604159	-0.21899928
140	0x3e9f55a0	0.31120014
141	0x3e66bdfc	0.22533411
142	0xbd5dce69	-0.054151926
143	0xbe4e31f0	-0.20136237
144	0xbe19cf0d	-0.1502039
145	0x3e5477c7	0.20748816
146	0xbdc60748	-0.096693575
147	0x3e24478c	0.16042918
148	0x3e399137	0.18121801
149	0x3e86a262	0.26295763
150	0xbe2ffd88	-0.17186558
151	0xbe5b19e7	-0.213966
152	0xbd03f17a	-0.032212712
153	0x3e2e523c	0.17023557
154	0x3d9f42e1	0.07776428
155	0xbe2f7da8	-0.17137778
156	0x3d05c34a	0.032656945
157	0x3e72a091	0.23694064
158	0xbe1b2949	-0.15152468
159	0xbd7acfa7	-0.06123319
160	0xbe165163	-0.14679484
161	0xbe514281	-0.20435525
162	0xbde60cf8	-0.11232942
163	0x3e5737ad	0.21017332
164	0xbe2ad399	-0.1668228
165	0xbd545433	-0.05183811
166	0xbb721ab1	-0.003694218
167	0xbe5a28d9	-0.21304645
168	0xbe3c60eb	-0.18396346
169	0xbe251ac2	-0.16123489
170	0x3e854c71	0.26034883
171	0xbe2bce3f	-0.16777895
172	0x3e67960a	0.22615829
173	0xbdaff619	-0.08591861
174	0xbe840ce1	-0.25791076
175	0xbe7cc96e	-0.24686214
176	0x3e85276f	0.26006648
177	0x3e7c94ee	0.24666187
178	0xbdcd4bce	-0.10024224
179	0xbe06cf7f	-0.13165091
180	0xbd8c36b4	-0.06846371
181	0xbe46560a	-0.19368759
182	0x3e46568c	0.19368953
183	0xbe1516dd	-0.14559503
184	0x3e6ff6ba	0.23433962
185	0xbda876bd	-0.082257725
186	0x3e84f582	0.25968558
187	0xbd0500c7	-0.032471444
188	0x3e82d4aa	0.25552875
189	0x3e6f2dfc	0.23357385
190	0x3e9972d7	0.29970428
191	0xbe347383	-0.17622189
192	0xbd46592e	-0.048424892
193	0xbd5ee798	-0.054420084
194	0x3e2fa900	0.17154312
195	0xbdad1cd3	-0.084527634
196	0x3e799626	0.24373683
197	0xbe1cbfa5	-0.15307482
198	0x3e34cee6	0.1765705
199	0x3c244cee	0.010028107
200	0xbe529f02	-0.20568469
201	0x3e6228fa	0.22085944
202	0x3e63f59b	0.2226166
203	0x3e218a1c	0.15775341
204	0xbde68ccd	-0.11257324
205	0xbde7c7f4	-0.11317435
206	0xbd6c02c7	-0.057619836
207	0xbe1bf32b	-0.1522948
208	0xbddd5d3f	-0.10808801
209	0x3e5129f9	0.20426168
210	0xbe29c8e0	-0.16580534
211	0x3e3b7da2	0.18309644
212	0xbde52935	-0.111895
213	0xbe2525b6	-0.16127667
214	0xbe52bc0a	-0.20579544
215	0xbdc007a4	-0.09376457
216	0xbcc2a9f0	-0.023762673
217	0x3e68555d	0.22688814
218	0x3e5e515c	0.21710724
219	0xbde7c3db	-0.11316653
220	0xbe3e41ff	-0.18579863
221	0x3e5b0996	0.21390375
222	0x3e47b5af	0.195029
223	0x3d63a737	0.05557939
224	0xbe3bf5b7	-0.18355452
225	0x3e1f458a	0.15553871
226	0xbe0a043e	-0.13478181
227	0xbe3f3c60	-0.18675375
228	0x3e863199	0.26209715
229	0xbd0e2f4c	-0.034713075
230	0xbe202221	-0.15638019
231	0xbe45e6fb	-0.19326393
232	0xbe6b181a	-0.22958413
233	0x3d85e8a8	0.06538516
234	0xbe7381aa	-0.23779932
235	0x3e7f5a3b	0.24936764
236	0x3e7c9bc1	0.2466879
237	0xbcca3411	-0.02468303
238	0xbe441f83	-0.19152646
239	0x3d810ceb	0.06301292
240	0xbdb6dec3	-0.08929207
241	0x3e860314	0.26174223
242	0x3e6bf6dd	0.2304339
243	0x3e904937	0.28180858
244	0x3e3441cb	0.17603223
245	0x3e6b2152	0.2296193
246	0xbe2f27a2	-0.17104962
247	0x3e252c75	0.1613024
248	0xbe91223e	-0.28346437
249	0xbdb9130c	-0.09036836
250	0x3e4d85fd	0.20070644
251	0xbd524088	-0.051331073
252	0x3e8090f6	0.25110596
253	0x3e3b39e5	0.18283804
254	0xbe6b0b62	-0.22953561
255	0xbd088bca	-0.03333644

fc2.bias f4 [10]
0	0xbe682845	-0.22671612
1	0xbbd60274	-0.006531054
2	0x3d776c83	0.06040622
3	0xbd84a1da	-0.06476183
4	0x3b37ad7d	0.002802699
5	0xbdadc8b3	-0.08485546
6	0x3e2e656f	0.17030881
7	0x3e302a3b	0.1720361
8	0xbdd688fd	-0.10475347
9	0x3d8ce044	0.06878713
