RotatedMNIST/pretrained.pt (torch, 363137 bytes, 12 tensors)

conv1.weight f4 [10, 1, 1, 3, 3]
0.36472797 0.1688536 0.05549474 -0.2638175 -0.20184526 -0.16297907 -0.25337276 -0.31317714
-0.2793149 0.1278721 0.32768393 0.4719684 -0.3176613 -0.16591465 0.16098854 -0.2603031
-0.38252944 0.0077238483 0.08211334 -0.24555139 -0.31961218 -0.11261728 0.34401333 0.04262692
0.36641142 -0.084080525 0.3407813 0.4414232 -0.31071356 -0.28817496 0.44117862 -0.37441742
-0.26141053 0.38625962 0.038168203 0.15538795 -0.37258825 -0.24276906 0.3002132 -0.17606412
-0.15079242 0.42307398 -0.32006687 -0.04143338 0.50578827 0.30407497 0.032787904 0.3863211
0.27025512 0.19876486 -0.14359838 0.07590695 -0.5308136 -0.38138345 -0.34738502 0.11458441
-0.086222194 0.041934386 0.07389594 0.29749766 -0.22577034 0.0896065 0.22256006 0.112198465
-0.10946843 -0.15769528 -0.06347061 -0.057313096 -0.28520298 -0.3656021 -0.23147814 -0.055907495
-0.13092402 -0.41526017 0.09655428 0.05030664 0.27098846 -0.06294231 -0.08461921 0.51155275
0.021060074 0.036198627 -0.4522858 -0.36544898 0.50697935 0.22039822 -0.079280525 -0.2134765
0.14211783 0.3058562
00000000: a0bd ba3e f5e7 2c3e 744e 633d 1613 87be
00000010: 86b0 4ebe fce3 26be 13ba 81be c158 a0be
00000020: 5d02 8fbe e7f0 023e 30c6 a73e d8a5 f13e
00000030: 80a4 a2be 88e5 29be 2eda 243e 7346 85be
00000040: e6da c3be 5618 fd3b 0a2b a83d d371 7bbe
00000050: 35a4 a3be e3a3 e6bd 8422 b03e 9199 2e3d
00000060: 479a bb3e 6932 acbd e37a ae3e 3902 e23e
00000070: d915 9fbe ab8b 93be 2ae2 e13e a4b3 bfbe
00000080: 9ad7 85be d2c3 c53e 4356 1c3d 051e 1f3e
00000090: e3c3 bebe 7498 78be 8bb5 993e 274a 34be
000000a0: 5469 1abe 279d d83e cedf a3be 0cb6 29bd
000000b0: 577b 013f b7af 9b3e 9c4c 063d e1cb c53e
000000c0: e15e 8a3e 0489 4b3e 740b 13be 1a75 9b3d
000000d0: 66e3 07bf b144 c3be 73dc b1be 3bab ea3d
000000e0: 4395 b0bd 64c3 2b3d c156 973d 9d51 983e
000000f0: 5730 67be 9d83 b73d c9e6 633e 4fc8 e53d
00000100: fc30 e0bd df7a 21be e1fc 81bd 23c1 6abd
00000110: 2006 92be 3330 bbbe 9b08 6dbe 42ff 64bd
00000120: f210 06be fb9c d4be 40be c53d 560e 4e3d
00000130: 00bf 8a3e e6e7 80bd d64c adbd 1ff5 023f
00000140: 2d86 ac3c 0345 143d 0192 e7be 211c bbbe
00000150: 66c9 013f 12b0 613e d45d a2bd 9599 5abe
00000160: 5687 113e 2f99 9c3e

conv1.bias f4 [10]
0.0014900367 0.14480904 -0.26328495 0.14321333 0.34348089 -0.15642595 0.6264667 -0.14635968
0.34314647 0.060537416
00000000: 564d c33a d248 143e 49cd 86be 84a6 123e
00000010: badc af3e 202e 20be 1f60 203f 50df 15be
00000020: e5b0 af3e 15f6 773d

conv2.weight f4 [10, 10, 4, 3, 3]
0.052463956 -0.04314293 -0.059194166 -0.0721678 0.038428638 -0.020366348 0.04692464 0.024761347
-0.090291105 -0.050578162 -0.09156871 0.015127365 -0.13085464 0.027300842 -0.11012541 -0.04886419
0.03891686 -0.018404162 0.092864245 0.086431235 0.013533107 -0.08284032 0.040565252 -0.10380781
-0.099014014 -0.038941555 -0.08490756 0.017617622 -0.1069666 -0.010585703 -0.104152255 0.004888454
0.08058876 -0.063324995 -0.016409062 -0.03123412 0.01309496 -0.025959583 0.022110244 -0.08395273
0.066413864 -0.04301901 0.10874542 -0.08235643 -0.085140854 0.1311055 -0.037857357 -0.01779381
-0.06268877 0.015352222 -0.060225174 0.06441531 -0.002993602 -0.021146571 0.0068922727 -0.050994515
0.09099934 -0.010908672 -0.09325378 -0.039600346 -0.113897935 -0.0814486 -0.05801387 -0.018784856
-0.0026333237 0.050041515 -0.023909591 0.03532378 -0.08564893 -0.059599143 -0.017539041 0.11573269
0.09605299 0.039911598 0.047905426 -0.094653144 -0.073105246 -0.05991706 0.058987826 0.066558465
0.02146241 -0.096742064 0.018967304 0.026100598 -0.014396359 0.06273258 -0.054749954 0.029770035
0.026734069 0.051981192 -0.07052335 0.069269456 -0.02342336 -0.020631416 0.12673357 -0.022706619
-0.0009951378 0.00049221725 0.025950724 -0.09750228 0.06324629 0.029130803 -0.0764407 -0.031222716
-0.06596199 0.07016962 -0.047492005 0.074627034 -0.10664563 -0.0068306536 -0.04678336 0.004030232
-0.027640603 -0.10331077 -0.11355772 0.13145542 -0.16728354 -0.04229519 0.06315334 -0.1250255
-0.078084566 -0.05723913 -0.0751921 -0.08716887 -0.040464938 0.10830556 -0.13453387 -0.103446
0.03098764 -0.032524325 0.044529002 0.09688621 -0.06715679 0.08706777 -0.07308549 0.1572597
-0.055830788 -0.023941303 0.06554997 0.048260048 -0.12956586 0.014903298 -0.048063036 -0.0049992595
0.021291029 -0.110007375 -0.023023829 -0.018683212 0.052352626 0.008172194 -0.08438693 0.0043631042
0.009105083 0.017683942 -0.094252266 0.0906359 0.015651328 0.057867557 0.1246955 0.08133478
-0.13279147 -0.086313285 -0.0405001 -0.025950534 0.0053726407 -0.0050696316 0.04157214 -0.12956457
-0.021631328 -0.09553335 -0.13636625 0.09077697 0.024628233 -0.09699445 0.06305925 -0.09733694
-0.021512121 0.036870472 -0.08841532 0.08117012 0.013649732 0.0731838 -0.05852637 0.07468629
0.12809697 -0.15157852 0.0284629 -0.032834113 -0.037231155 0.024130274 -0.124833345 -0.037013564
-0.050936792 -0.093672216 0.012061569 0.039447196 0.0014740735 -0.0948824 0.06704743 0.15613303
-0.076392286 -0.021827143 -0.09246905 -0.1716587 -0.08185353 0.0028088822 -0.025156481 -0.05601463
-0.1416358 0.056088295 -0.090609305 -0.09787139 0.083582394 0.076190434 -0.1008685 0.05946962
-0.03435738 -0.037330136 0.03997313 -0.07964615 -0.08156276 0.14356995 0.06483034 -0.06448452
0.069053665 -0.041544642 -0.0887888 -0.06739888 0.14461897 0.06049382 0.09752332 0.07886283
-0.082813576 -0.058561046 0.12317751 0.101193435 -0.043946207 0.16705677 0.026759196 -0.014330522
-0.024470441 0.035123453 0.023588927 0.10947606 -0.041297622 -0.07807243 -0.009232956 -0.01717164
-0.05980022 0.0658704 0.06938392 0.13351431 0.09030821 0.061905295 -0.0005454227 0.0069180746
00000000: 72e4 563d a4b6 30bd 9575 72bd b6cc 93bd
00000010: 5967 1d3d 54d7 a6bc 0d34 403d 4fd8 ca3c
00000020: 8bea b8bd 0c2b 4fbd 6088 bbbd c4d8 773c
00000030: c2fe 05be 04a6 df3c 6e89 e1bd d125 48bd
00000040: 4967 1f3d 53c4 96bc 9c2f be3d dc02 b13d
00000050: f7b9 5d3c 30a8 a9bd c027 263d 3099 d4bd
00000060: dcc7 cabd 2e81 1fbd 04e4 adbd d552 903c
00000070: 4e11 dbbd a86f 2dbc c74d d5bd 532f a03b
00000080: b80b a53d 89b0 81bd 4c6c 86bc b2de ffbc
00000090: 3e8c 563c 31a9 d4bc 8b20 b53c 69ef abbd
000000a0: fe03 883d b434 30bd ebb5 de3d 7daa a8bd
000000b0: 545e aebd 8540 063e 5110 1bbd 53c4 91bc
000000c0: f862 80bd e387 7b3c acae 76bd 2dec 833d
000000d0: 4f30 44bb 933b adbc 93d8 e13b a0df 50bd
000000e0: dd5d ba3d 49ba 32bc d6fb bebd f933 22bd
000000f0: 5243 e9bd 86ce a6bd f49f 6dbd b3e2 99bc
00000100: d793 2cbb 55f8 4c3d 0cde c3bc abaf 103d
00000110: b568 afbd 3b1e 74bd 09ae 8fbc 4305 ed3d
00000120: 6eb7 c43d 587a 233d 7b38 443d 82d9 c1bd
00000130: 34b8 95bd 976b 75bd 389d 713d ce4f 883d
00000140: f0d1 af3c b420 c6bd 5261 9b3c ecd0 d53c
00000150: b5de 6bbc f079 803d 7d41 60bd 4ae0 f33c
00000160: 6801 db3c 3bea 543d 8c6e 90bd 25dd 8d3d
00000170: 59e2 bfbc 3703 a9bc 72c6 013e 3b03 babc
00000180: 496f 82ba 2408 013a 9d96 d43c 46af c7bd
00000190: 4587 813d b9a3 ee3c f18c 9cbd c8c6 ffbc
000001a0: 1417 87bd 17b5 8f3d fa86 42bd 0fd6 983d
000001b0: 0669 dabd add3 dfbb e99f 3fbd 0910 843b
000001c0: 8c6e e2bc 9994 d3bd f390 e8bd 409c 063e
000001d0: 604c 2bbe b93d 2dbd 8a56 813d af06 00be
000001e0: cdea 9fbd 9473 6abd 51fe 99bd 9885 b2bd
000001f0: 90be 25bd 4ecf dd3d 3fc3 09be 7fdb d3bd
00000200: cbd9 fd3c 3a38 05bd 0b64 363d 476c c63d
00000210: 8089 89bd 9650 b23d d8ad 95bd b008 213e
00000220: d3ae 64bd 8d20 c4bc 103f 863d 54ac 453d
00000230: eaac 04be f62c 743c bfdd 44bd d4d0 a3bb
00000240: 866a ae3c 8c4b e1bd 789c bcbc 890d 99bc
00000250: b56f 563d aae4 053c 0ed3 acbd 5ff8 8e3b
00000260: 7c2d 153c eadd 903c 5507 c1bd 519f b93d
00000270: 3737 803c 8806 6d3d 5b60 ff3d d992 a63d
00000280: 7dfa 07be 05c5 b0bd 6fe3 25bd 3796 d4bc
00000290: fa0c b03b 271f a6bb 8c47 2a3d 93ac 04be
000002a0: 2f34 b1bc fda6 c3bd 98a3 0bbe 47e9 b93d
000002b0: 26c1 c93c 07a5 c6bd 3525 813d 9758 c7bd
000002c0: 303a b0bc 7e05 173d 1713 b5bd 853c a63d
000002d0: 20a3 5f3c 63e1 953d 59b9 6fbd 20f5 983d
000002e0: da2b 033e 6637 1bbe 072b e93c 107d 06bd
000002f0: b27f 18bd daac c53c a0a8 ffbd 899b 17bd
00000300: 19a3 50bd 38d7 bfbd e39d 453c 6293 213d
00000310: b335 c13a b451 c2bd 2a50 893d 56e1 1f3e
00000320: 8f73 9cbd d6ce b2bc 6a60 bdbd 4cc7 2fbe
00000330: d3a2 a7bd 3915 383b f714 cebc 996f 65bd
00000340: fa08 11be d7bc 653d 5f91 b9bd cc70 c8bd
00000350: 3f2d ab3d bb09 9c3d 2594 cebd 6b96 733d
00000360: 53ba 0cbd 7ce7 18bd ddba 233d 851d a3bd
00000370: 600a a7bd 0004 133e c5c5 843d 7610 84bd
00000380: 026c 8d3d b72a 2abd e7d6 b5bd 6d08 8abd
00000390: ff16 143e 5ec8 773d 4eba c73d d682 a13d
000003a0: 2a9a a9bd b5dd 6fbd 7e44 fc3d 813e cf3d
000003b0: f000 34bd ee10 2b3e 1a36 db3c 91ca 6abc
000003c0: 3c76 c8bc 9cdd 0f3d 913d c13c fc34 e03d
000003d0: b227 29bd 70e4 9fbd d345 17bc 8aab 8cbc
000003e0: 13f1 74bd 0fe7 863d 2819 8e3d fab7 083e
000003f0: 83f3 b83d 6890 7d3d b3fa 0eba 04b1 e23b

conv2.bias f4 [10]
-0.0074947877 0.017585658 -0.052776627 0.05198615 0.15092279 0.035849556 0.082121745 0.0046027033
0.080706395 0.11499263
00000000: d696 f5bb cc0f 903c 4e2c 58bd 6eef 543d
00000010: 818b 1a3e fcd6 123d 722f a83d 46d2 963b
00000020: 6549 a53d 4281 eb3d

conv3.weight f4 [20, 10, 4, 3, 3]
-0.038633786 -0.08832591 -0.037908714 0.010962138 0.06445669 -0.022593128 -0.07152438 0.0042318045
-0.0014393477 -0.013938672 -0.020309672 -0.11837766 0.03957219 -0.11878608 0.029984606 -0.056241676
0.07182472 0.08927169 0.10796399 0.05171256 -0.13187607 0.0048113894 -0.017700028 0.046521112
0.10086563 -0.0027014227 -0.021440683 0.06507383 0.11051825 -0.12913382 0.09562625 -0.06009623
0.024887374 0.021079166 0.050720457 0.08141847 0.088012494 0.049660455 -0.071876995 0.096259445
-0.013312523 -0.087807 -0.029541692 0.015559509 -0.080046505 0.08639225 0.10147865 -0.02321911
0.03929009 -0.030954663 -0.032334834 0.043793168 -0.059070542 -0.02949779 -0.06023885 0.015520637
0.061696693 -0.09565839 0.035031833 0.09894419 -0.06695838 0.06363698 -0.076561674 0.0035802436
-0.01395205 -0.06728579 0.037406582 0.084338754 -0.0077089584 -0.04831513 0.04261872 -0.10275448
-0.05337669 -0.08232602 -0.04294717 0.07916559 -0.11367697 -0.051614344 -0.009249175 -0.07476554
-0.01651335 0.09622776 -0.13318673 -0.028185355 0.061209768 0.016523581 -0.077484146 -0.16111054
-0.003930242 0.08501535 0.058290277 -0.09408507 -0.079530686 0.121441334 0.044805482 -0.06617505
0.030803448 -0.011404952 -0.045937296 0.088973925 0.04993198 -0.03013949 0.013032669 -0.11313019
-0.09315441 -0.05752647 -0.07863007 -0.02969593 0.028677238 0.043538705 -0.015418258 0.09144347
0.11108425 -0.14175323 0.05168418 -0.0096683735 0.16087182 0.048675835 -0.0015456817 0.017395236
-0.0014773537 -0.09500475 0.04171749 0.11023822 -0.11610587 -0.028787354 -0.14992331 -0.14757347
-0.028862381 -0.13594474 -0.063236155 0.10627241 -0.06745634 0.020628825 -0.07135815 0.16051938
-0.0059631965 -0.09982417 0.040792283 -0.09956604 -0.066557266 0.07857516 -0.072542116 -0.0034320801
-0.076860756 0.07406969 0.068953894 -0.071458094 0.15278253 0.074209884 -0.0021826338 0.068034805
0.07030725 0.095722795 -0.09449734 0.007343194 -0.004955875 -0.09105317 -0.084579065 0.080923356
-0.11399149 -0.001192802 -0.09815219 0.06539563 0.050249428 0.035281386 0.170346 -0.085226595
-0.062381018 -0.045079596 0.01776001 -0.02382338 0.017779574 -0.039628197 0.098386355 -0.110539205
0.04541599 0.012929409 -0.050851922 0.029992212 0.019446038 0.04241762 -0.0945515 0.08891837
0.03974802 -0.047750473 0.077726275 -0.01448436 0.07573453 0.02485964 0.00083112775 0.07542329
-0.11970421 -0.088287674 -0.042796638 -0.037004247 -0.02984961 -0.07633442 -0.073930666 0.060190592
-0.06054331 -0.029499345 0.0821187 -0.14147222 -0.050365504 0.09180816 0.05541991 -0.0385109
0.0082791615 -0.092609 0.02617704 0.020251779 0.039929047 0.027617171 -0.013592055 -0.059839252
-0.0017248212 0.046465103 -0.016933652 -0.07983597 -0.12670514 0.026423678 0.087139025 -0.07211069
0.075524144 0.08496592 0.069200665 -0.03212206 0.07386863 -0.04511255 0.013555216 -0.123309836
-0.07176121 0.013710678 -0.053305812 -0.014875134 0.10135877 0.009297529 0.08294141 -0.047346503
0.022520885 -0.07187846 -0.07539674 0.0012326153 0.01853977 -0.045276944 -0.061796922 0.06795828
0.065744884 -0.024683705 -0.0056271493 0.0179411 0.011987206 -0.11078849 0.08008861 -0.059881896
00000000: 763e 1ebd 37e4 b4bd 2b46 1bbd 8a9a 333c
00000010: de01 843d 3915 b9bc 607b 92bd f3aa 8a3b
00000020: 7fa8 bcba 075f 64bc 7860 a6bc fd6f f2bd
00000030: 7316 223d 1e46 f3bd 47a2 f53c ac5d 66bd
00000040: d718 933d 13d4 b63d 391c dd3d 8dd0 533d
00000050: 850a 07be dca8 9d3b a6ff 90bc ec8c 3e3d
00000060: a492 ce3d 5a0a 31bb 5fa4 afbc 6e45 853d
00000070: 6457 e23d a83b 04be b2d7 c33d 7727 76bd
00000080: 9be0 cb3c 37ae ac3c 41c0 4f3d babe a63d
00000090: e53f b43d c368 4b3d 3f34 93bd ac23 c53d
000000a0: c51c 5abc 28d4 b3bd 6b01 f2bc 50ed 7e3c
000000b0: 6cef a3bd 6cee b03d 0ad4 cf3d 0136 bebc
000000c0: a5ee 203d a294 fdbc 8871 04bd 7760 333d
000000d0: f4f3 71bd 59a5 f1bc 03bd 76bd 454a 7e3c
000000e0: acb5 7c3d 8ce8 c3bd 8a7d 0f3d 40a3 ca3d
000000f0: 7a21 89bd 1b54 823d 5ecc 9cbd 85a2 6a3b
00000100: 2497 64bc 22cd 89bd a537 193d ccb9 ac3d
00000110: 6e9b fcbb 16e6 45bd f890 2e3d f170 d2bd
00000120: 84a1 5abd 8b9a a8bd 5fe9 2fbd 9221 a23d
00000130: 79cf e8bd 9069 53bd da89 17bc ad1e 99bd
00000140: 0147 87bc 0f13 c53d 1a62 08be f9e4 e6bc
00000150: 18b7 7a3d 765c 873c 02b0 9ebd 29fa 24be
00000160: 42c9 80bb 871c ae3d c9c1 6e3d acaf c0bd
00000170: fce0 a2bd 3cb6 f83d f485 373d c986 87bd
00000180: 8357 fc3c d6db 3abc bf28 3cbd f637 b63d
00000190: 7a85 4c3d 17e7 f6bc fa86 553c cdb0 e7bd
000001a0: bdc7 bebd e0a0 6bbd cd08 a1bd e144 f3bc
000001b0: 87ec ea3c a455 323d dc9c 7cbc b746 bb3d
000001c0: 2480 e33d c227 11be cab2 533d 1968 1ebc
000001d0: 95bb 243e 5060 473d 7998 caba 7480 8e3c
000001e0: c4a3 c1ba da91 c2bd f5df 2a3d 93c4 e13d
000001f0: eac8 edbd 75d3 ebbc 7f85 19be 801d 17be
00000200: cd70 ecbc 1935 0bbe f581 81bd 59a5 d93d
00000210: 8d26 8abd c8fd a83c 3924 92bd 315f 243e
00000220: eb66 c3bb 9d70 ccbd cf15 273d 48e9 cbbd
00000230: 2d4f 88bd 03ec a03d f690 94bd c0ec 60bb
00000240: 2c69 9dbd dab1 973d b337 8d3d 9f58 92bd
00000250: 0673 1c3e 5afb 973d 850a 0fbb d555 8b3d
00000260: 3ffd 8f3d 500a c43d d287 c1bd 2d9f f03b
00000270: e564 a2bb 167a babd ca37 adbd 25bb a53d
00000280: 5f74 e9bd cb57 9cba 0404 c9bd 25ee 853d
00000290: 58d2 4d3d 3783 103d 2f6f 2e3e 488b aebd
000002a0: 3d83 7fbd 62a5 38bd 717d 913c 4029 c3bc
000002b0: 78a6 913c 2d51 22bd c97e c93d 6162 e2bd
000002c0: 1e06 3a3d dfd5 533c 1b4a 50bd 3ab2 f53c
000002d0: 4c4d 9f3c 19be 2d3d 38a4 c1bd d61a b63d
000002e0: d2ce 223d 0096 43bd f42e 9f3d cf4f 6dbc
000002f0: b51a 9b3d 72a6 cb3c 0ae0 593a 8777 9a3d
00000300: 7b27 f5bd 2bd0 b4bd 874b 2fbd c491 17bd
00000310: 2b87 f4bc 3855 9cbd f668 97bd 698a 763d
00000320: 43fc 77bd 9ca8 f1bc d92d a83d 18de 10be
00000330: 0f4c 4ebd eb05 bc3d fdff 623d 9bbd 1dbd
00000340: 52a5 073c caa9 bdbd 3b71 d63c 0fe7 a53c
00000350: a48c 233d 683d e23c 36b1 5ebc 011a 75bd
00000360: 6513 e2ba 3152 3e3d 71b8 8abc 0b81 a3bd
00000370: febe 01be 7876 d83c f275 b23d c5ae 93bd
00000380: 67ac 9a3d 9d02 ae3d 14b9 8d3d 6c92 03bd
00000390: 7048 973d f0c7 38bd b216 5e3c de89 fcbd
000003a0: 8bf7 92bd c0a2 603c 3257 5abd d6b6 73bc
000003b0: 3095 cf3d aa54 183c 30dd a93d 68ee 41bd
000003c0: b87d b83c 0435 93bd 9b69 9abd b58f a13a
000003d0: b7e0 973c 5174 39bd c51e 7dbd b62d 8b3d
000003e0: 41a5 863d 7b35 cabc f363 b8bb 37f9 923c
000003f0: fc65 443c 13e5 e2bd 7f05 a43d b846 75bd

conv3.bias f4 [20]
-0.12053376 -0.07855679 -0.031749357 0.025476368 0.093589544 0.00502557 0.008302552 0.03039322
-0.06504153 0.027026426 -0.08294132 0.061888658 0.053083703 0.040416382 0.007231775 -0.0071766614
-0.07115342 0.11366024 -0.093023695 0.030711234
00000000: 67da f6bd 62e2 a0bd 9d0b 02bd d1b3 d03c
00000010: e0ab bf3d 89ad a43b 6d07 083c 34fb f83c
00000020: 7e34 85bd 8666 dd3c 24dd a9bd f67e 7d3d
00000030: 4c6e 593d a68b 253d 87f8 ec3b 332a ebbb
00000040: e2b8 91bd b3c6 e83d 3583 bebd 2096 fb3c

conv4.weight f4 [20, 20, 4, 3, 3]
0.07755227 -0.055532586 -0.013950994 0.013443397 0.0049812375 0.05207469 0.022646403 0.029871123
-0.042582754 -0.036743905 0.01614763 0.02923547 -0.0048625916 -0.07706894 -0.11277225 -0.046612386
-0.03416603 0.056356505 -0.05009496 -0.070107475 0.13423069 -0.061370574 0.026333796 0.16585492
-0.07653951 0.03739652 -0.11163198 -0.1438027 -0.0044370713 -0.09622483 -0.10207617 -0.03874693
-0.10827359 0.014871996 -0.106353685 -0.15625805 -0.121646985 -0.15819994 -0.14334778 0.061961193
-0.0057263384 -0.16702035 -0.008111688 0.045112856 -0.110374264 -0.13218619 -0.18679431 -0.005513931
-0.07413113 0.004469871 0.09977678 -0.039693594 0.010506964 0.06681298 -0.1941668 -0.013799908
0.057988748 0.05313412 -0.15467793 0.035544306 0.04802011 -0.017929038 0.09643233 0.02449167
-0.14193174 -0.119328514 -0.0141638955 -0.13359843 0.1419775 -0.102136634 0.089402094 0.087022476
-0.15122482 -0.018626496 -0.006818536 0.06689118 0.03980196 -0.067851834 -0.05400564 -0.04532706
-0.07713058 0.048508544 0.09471859 0.02919882 -0.21565692 -0.052755628 0.09094123 -0.23165037
0.04368951 0.14731164 0.107063316 -0.022024278 -0.06445325 0.009263141 -0.021928899 -0.31597513
0.126667 0.09168807 -0.008565658 -0.10322428 -0.07980895 -0.20275071 0.013455623 -0.01741306
0.14974572 0.07836215 0.07557553 0.08331821 0.054422475 -0.012864201 -0.103160545 0.046751074
0.07091599 -0.04867134 0.0829605 0.18877108 0.036940772 -0.035218146 -0.22847557 -0.05886569
-0.040147413 0.10583301 0.042274825 0.023210514 -0.0018101013 -0.054737378 -0.045411624 0.045562923
-0.048534382 0.034420654 0.031902798 0.020030735 -0.04237496 -0.0938659 0.034171093 0.08752399
-0.117495045 -0.17759016 0.03594524 0.020349497 0.026498934 -0.009134467 -0.100362256 -0.08109304
-0.07583372 -0.017988672 -0.041212667 -0.03848563 0.008192798 -0.061815977 -0.020941675 -0.113667436
-0.10409425 -0.06528201 -0.04911124 -0.005792364 -0.094740815 0.023674091 -0.05775091 -0.034530878
0.0071798307 -0.027707478 -0.102831274 -0.016738541 0.002302857 -0.058311604 -0.05424592 -0.0625979
-0.09456669 -0.105268806 -0.09433453 0.053872604 0.09368785 -0.09368445 -0.047494672 -0.10690042
0.018298805 -0.007730859 0.13478754 0.023160566 0.0056523653 -0.066227615 -0.01780502 0.09469276
0.038010594 -0.110639036 0.08294764 0.007870399 0.0717303 -0.021304589 -0.026777439 -0.016377335
0.026786983 -0.0030303025 -0.043681547 0.04500344 -0.0801277 0.025813693 -0.05125801 -0.075281
-0.031558238 -0.06393281 -0.0013287542 -0.04792506 -0.05260759 0.1031125 0.07444195 0.0044975323
0.03236842 0.03406715 0.005702934 0.005299443 0.009436371 -0.030330433 0.030719863 -0.04124479
0.10323195 -0.045607697 -0.11099096 0.028527189 -0.086940974 -0.082867056 -0.06233976 -0.1502264
-0.10207431 0.10800021 0.09688019 0.0016176542 -0.032799814 -0.060202733 -0.06810263 0.006395237
-0.13111173 0.04003692 -0.03188528 -0.084773734 0.08667296 0.018806249 -0.06634644 0.029874062
0.044284724 -0.04516312 0.030111829 -0.003000864 -0.03987165 0.045330003 -0.067648426 -0.13552512
-0.0005502084 0.054732677 0.04122184 -0.077705935 -0.017781552 0.0073744226 -0.03791397 0.032248303
00000000: b9d3 9e3d 2376 63bd b692 64bc b241 5c3c
00000010: a639 a33b 454c 553d f384 b93c 49b4 f43c
00000020: 416b 2ebd c780 16bd 0948 843c 397f ef3c
00000030: 6056 9fbb 52d6 9dbd 23f5 e6bd a1ec 3ebd
00000040: aef1 0bbd 14d6 663d 5f30 4dbd 8294 8fbd
00000050: c573 093e b65f 7bbd f9b9 d73c dfd5 293e
00000060: bfc0 9cbd 182d 193d 4f9f e4bd 0441 13be
00000070: da64 91bb 8611 c5bd 500d d1bd 1ab5 1ebd
00000080: 8bbe ddbd aca9 733c f6cf d9bd 1c02 20be
00000090: 0e22 f9bd 2aff 21be c3c9 12be 05cb 7d3d
000000a0: 02a4 bbbb 6207 2bbe e3e6 04bc 42c8 383d
000000b0: e70b e2bd d15b 07be 0247 3fbe 35ae b4bb
000000c0: 10d2 97bd ff77 923b c557 cc3d c095 22bd
000000d0: 6725 2c3c 3ed5 883d a9d3 46be 0219 62bc
000000e0: 9c85 6d3d 2aa3 593d e463 1ebe e896 113d
000000f0: bcb0 443d ebdf 92bc 507e c53d c1a2 c83c
00000100: 8e56 11be 8262 f4bd af0f 68bc 07ce 08be
00000110: 8d62 113e 032d d1bd 7218 b73d d738 b23d
00000120: aeda 1abe 9896 98bc 076e dfbb 3efe 883d
00000130: 6107 233d e7f5 8abd 0535 5dbd dea8 39bd
00000140: a3f6 9dbd e5b0 463d d2fb c13d 5d32 ef3c
00000150: 2bd5 5cbe 4916 58bd 653f ba3d c135 6dbe
00000160: c6f3 323d ddd8 163e 0344 db3d 426c b4bc
00000170: 1100 84bd 6ec4 173c 3ca4 b3bc 7ec7 a1be
00000180: feb4 013e f4c6 bb3d f956 0cbc 4067 d3bd
00000190: e072 a3bd e29d 4fbe f974 5c3c d5a5 8ebc
000001a0: f156 193e 567c a03d 58c7 9a3d bda2 aa3d
000001b0: 1aea 5e3d 5fc4 52bc d645 d3bd 0e7e 3f3d
000001c0: 673c 913d 995b 47bd 32e7 a93d 354d 413e
000001d0: 354f 173d e740 10bd 80f5 69be 261d 71bd
000001e0: 9d71 24bd fabe d83d 5e28 2d3d fa23 be3c
000001f0: ec40 edba 4d34 60bd 8a01 3abd 30a0 3a3d
00000200: fdcb 46bd acfc 0c3d 82ac 023d 7f17 a43c
00000210: 5e91 2dbd c43c c0bd fdf6 0b3d c73f b33d
00000220: 3ea1 f0bd 32da 35be 513b 133d fdb3 a63c
00000230: 4b14 d93c bba8 15bc ba8a cdbd 1c14 a6bd
00000240: b64e 9bbd fb5c 93bc 9dce 28bd 1ca3 1dbd
00000250: 163b 063c c032 7dbd e08d abbc 79ca e8bd
00000260: 5e2f d5bd 93b2 85bd de28 49bd dfcd bdbb
00000270: 7907 c2bd 2bf0 c13c 388c 6cbd 4070 0dbd
00000280: c944 eb3b cbfa e2bc 3499 d2bd 441f 89bc
00000290: 88eb 163b 26d8 6ebd f830 5ebd 5433 80bd
000002a0: 2eac c1bd 2c97 d7bd 7632 c1bd 85a9 5c3d
000002b0: 6adf bf3d a2dd bfbd c689 42bd 9bee dabd
000002c0: 60e7 953c 2553 fdbb bf05 0a3e 3abb bd3c
000002d0: 7a37 b93b 58a2 87bd d5db 91bc 47ee c13d
000002e0: ffb0 1b3d b896 e2bd 74e0 a93d d9f2 003c
000002f0: 56e7 923d f686 aebc 5c5c dbbc c329 86bc
00000300: 6070 db3c 0a98 46bb 6ceb 32bd 8755 383d
00000310: fe19 a4bd 3d77 d33c ebf3 51bd ed2c 9abd
00000320: 3643 01bd 35ef 82bd 9829 aeba 114d 44bd
00000330: 0e7b 57bd a52c d33d 0575 983d 0960 933b
00000340: c094 043d ff89 0b3d aedf ba3b f3a6 ad3b
00000350: 029b 1a3c 8777 f8bc 39a8 fb3c 4cf0 28bd
00000360: 466b d33d 23cf 3abd 3a4f e3bd dab1 e93c
00000370: 1c0e b2bd 34b6 a9bd fa57 7fbd f3d4 19be
00000380: 560c d1bd 372f dd3d 1f69 c63d 7807 d43a
00000390: 1959 06bd 2497 76bd 6479 8bbd 238f d13b
000003a0: 2742 06be c1fd 233d 249a 02bd da9d adbd
000003b0: 9881 b13d 900f 9a3c a4e0 87bd 73ba f43c
000003c0: e663 353d f7fc 38bd 15ad f63c 25aa 44bb
000003d0: 7550 23bd f4ab 393d 428b 8abd 19c7 0abe
000003e0: dc3b 10ba 5f2f 603d 3bd8 283d 4a24 9fbd
000003f0: 9eaa 91bc 24a5 f13b ae4b 1bbd cc16 043d

conv4.bias f4 [20]
0.027440527 0.01891342 -0.0038910497 0.07740418 -0.03542745 0.056908842 -0.02988891 -0.030692594
-0.032409493 -0.048656877 -0.03144916 -0.036168166 -0.0054395394 0.025871662 0.027695734 0.06958551
0.06043447 -0.058581367 -0.05608865 -0.062870696
00000000: f5ca e03c 51f0 9a3c fb00 7fbb 1586 9e3d
00000010: 601c 11bd 3f19 693d 96d9 f4bc 096f fbbc
00000020: d1bf 04bd 6f4c 47bd d6d0 00bd 1225 14bd
00000030: 2a3e b2bb cff0 d33c 2ae2 e23c d982 8e3d
00000040: 238a 773d 04f3 6fbd 36bd 65bd 5ac2 80bd

fc1.weight f4 [50, 1280]
-0.017034747 0.003177645 0.015715573 0.04312912 0.10508606 0.023808753 -0.05015706 0.022753475
0.039145023 0.08150564 0.058342777 0.041201808 -0.0066144173 0.0023079147 0.064640485 0.054299753
-0.0075728237 0.028928667 0.067343794 0.049849894 -0.023335708 -0.03451956 0.080388606 0.03147065
-0.0118789235 0.13604024 0.06556612 0.016532263 0.013618991 0.07816721 -0.005582244 -0.03451749
0.028774723 0.007856189 0.023572486 0.021949248 0.025421573 0.008953019 0.08970795 0.049657132
0.045127757 0.01139147 0.08466999 -0.004396313 -0.0033738103 -0.024229052 -0.021989176 -0.003041819
0.052321758 0.15002249 0.13898621 -0.014070993 0.04448692 0.1003721 0.038238265 -0.049504705
0.032557353 0.0024691261 -0.038021613 -0.028302874 0.04640831 0.03238544 0.0014815629 -0.011790677
0.019988699 0.020114474 0.02677435 0.04691523 -0.04202452 -0.04609831 -0.04125436 0.060328867
-0.0340772 0.03849849 -0.027294282 0.0017802413 -0.005557382 -9.8873315e-05 0.034410086 0.0031450705
0.03204235 0.0987568 0.016920663 -0.033884197 0.039683238 0.019550394 0.023974473 0.029611038
0.027382437 -0.04889491 0.019392315 0.04009429 -0.06114269 -0.07261924 -0.025598278 0.009319971
-0.023438703 0.013039196 -0.022374451 -0.0111024715 0.026001764 0.003749472 0.03664341 -0.025314912
0.04623361 0.04034195 -0.0011120876 -0.07256716 0.037605103 0.00054159714 0.00051534636 -0.041219387
0.02801575 -0.053197116 -0.071001254 -0.00976296 -0.04028882 -0.0091354875 -0.056277737 0.028403046
0.006907794 -0.03292827 -0.010367742 0.016208617 -0.041998196 0.033788156 0.04136558 0.023653967
0.020788988 -0.016939696 -0.06445111 -0.0006686814 -0.012137971 -0.0070153913 -0.08672614 0.0062391185
0.008027198 0.0024893708 -0.037769318 0.01836851 -0.0099321455 0.015116427 0.047116354 -0.02648375
0.0015568165 0.0035131436 -0.025668051 -0.04756127 0.009582333 0.015395484 -0.03539876 -0.07241488
0.010026649 -0.016178783 -0.077222146 -0.049116425 0.035665356 0.037833933 -0.034238126 -0.02718016
-0.0024301494 -0.040604647 -0.08683216 -0.04161665 -0.0062771747 -0.015486454 -0.07424306 -0.04548856
-0.010842859 0.013946283 -0.029616058 0.0045975423 -0.040766485 -0.019305604 -0.017245097 -0.020383712
0.023882175 -0.0008187635 0.018749062 0.026679182 -0.017450092 0.0068732398 -0.04998208 -0.0740695
0.054748807 0.058105774 -0.0685215 -0.051944703 -0.027402245 0.019516638 0.010514262 -0.05602325
-0.00012708457 -0.021226248 0.01734143 0.04881548 0.040489476 -0.01992775 0.045818456 0.01613567
0.054134253 -0.012141259 -0.023367524 -0.025832487 0.0668179 0.0042736684 -0.029209184 -0.07438477
0.01671199 0.04096314 -0.0062652323 -0.042191733 0.030836528 0.080701336 -0.00014622835 -0.04875411
0.06402511 0.01799715 -0.033677027 0.032832243 0.020093065 0.05545669 0.08908129 0.0058401
0.014896741 0.04824092 0.02447526 0.01792375 0.022315908 -0.055345237 0.001210162 0.059739232
0.051241513 0.02102987 0.03241055 0.08976521 0.00496792 0.033343703 0.06923802 0.026660614
0.05177447 0.024198068 0.03804713 -0.002542157 0.003911478 -0.01130142 0.009364397 0.031439804
-0.06483688 -0.021553641 0.033284083 0.072636634 -0.020593561 0.036950596 -0.019789202 -0.005010443
00000000: 748c 8bbc 0940 503b f2bd 803c 29a8 303d
00000010: 5c37 d73d 930a c33c 7d71 4dbd 7f65 ba3c
00000020: 8856 203d 6eec a63d d6f8 6e3d 3ac3 283d
00000030: c1bd d8bb 6240 173b 3b62 843d 6b69 5e3d
00000040: 7325 f8bb d0fb ec3c 8beb 893d 672f 4c3d
00000050: 872a bfbc 6264 0dbd c8a2 a43d 5ee7 003d
00000060: d19f 42bc 224e 0b3e 8847 863d ab6e 873c
00000070: 3022 5f3c 2116 a03d 42eb b6bb 3662 0dbd
00000080: f8b8 eb3c 3fb7 003c 161b c13c e9ce b33c
00000090: e740 d03c afaf 123c cdb8 b73d 4765 4b3d
000000a0: e2d7 383d 4aa3 3a3c 7667 ad3d f20e 90bb
000000b0: 251b 5dbb 017c c6bc a522 b4bc 4159 47bb
000000c0: 574f 563d 7f9f 193e 6752 0e3e 068a 66bc
000000d0: eb37 363d e38f cd3d ba9f 1c3d 72c5 4abd
000000e0: dc5a 053d 10d1 213b 8dbc 1bbd 6edb e7bc
000000f0: a416 3e3d 98a6 043d 0031 c23a af2d 41bc
00000100: 57bf a33c 1cc7 a43c e255 db3c 2f2a 403d
00000110: e721 2cbd 95d1 3cbd 55fa 28bd 671b 773d
00000120: 8994 0bbd 98b0 1d3d 4298 dfbc fc56 e93a
00000130: b31a b6bb 355a cfb8 97f1 0c3d 871d 4e3b
00000140: d73e 033d 0141 ca3d 349d 8a3c 28ca 0abd
00000150: e48a 223d 2628 a03c 1d66 c43c d992 f23c
00000160: 2251 e03c 0746 48bd a2dc 9e3c e939 243d
00000170: c270 7abd 65b9 94bd 7bb3 d1bc cbb2 183c
00000180: 8602 c0bc 5aa2 553c a04a b7bc 24e7 35bc
00000190: a701 d53c b4b9 753b 6617 163d 3861 cfbc
000001a0: 745f 3d3d 9a3d 253d 78c3 91ba 179e 94bd
000001b0: cf07 1a3d f8f9 0d3a 4f18 073a a9d5 28bd
000001c0: 4981 e53c 38e5 59bd 1b69 91bd d2f4 1fbc
000001d0: e405 25bd 03ad 15bc 7c83 66bd 81ad e83c
000001e0: c75a e23b cbdf 06bd 76dd 29bc efc7 843c
000001f0: 4d06 2cbd 7365 0a3d f46e 293d f7c5 c13c
00000200: ab4d aa3c 1ec5 8abc f2fe 83bd 734a 2fba
00000210: 57de 46bc 5ee1 e5bb 799d b1bd 8571 cc3b
00000220: 8284 033c b624 233b 00b4 1abd 8f79 963c
00000230: 70ba 22bc e4aa 773c 14fd 403d 73f4 d8bc
00000240: 180e cc3a c53c 663b ce45 d2bc 9bcf 42bd
00000250: 38ff 1c3c 573d 7c3c 4afe 10bd 414e 94bd
00000260: d046 243c 5e89 84bc a526 9ebd 4e2e 49bd
00000270: d615 123d c1f7 1a3d 473d 0cbd eda8 debc
00000280: 2443 1fbb 0f51 26bd 0fd5 b1bd 3876 2abd
00000290: c2b0 cdbb e5ba 7dbc bf0c 98bd 3652 3abd
000002a0: 3fa6 31bc f37e 643c 609d f2bc fba6 963b
000002b0: c2fa 26bd c926 9ebc 9745 8dbc befb a6bc
000002c0: 8da4 c33c 4aa2 56ba a297 993c 4d8e da3c
000002d0: 7ff3 8ebc ea38 e13b 02ba 4cbd c0b1 97bd
000002e0: 4940 603d 5200 6e3d 0055 8cbd f8c3 54bd
000002f0: ac7a e0bc 5be1 9f3c 0344 2c3c a378 65bd
00000300: 0142 05b9 abe2 adbc 9d0f 8e3c bef2 473d
00000310: 4bd8 253d 853f a3bc 22ac 3b3d f42e 843c
00000320: e1bb 5d3d 22ec 46bc 406d bfbc a79e d3bc
00000330: d3d7 883d 210a 8c3b 1948 efbc 0b57 98bd
00000340: 95e7 883c f7c8 273d 944c cdbb 3dd1 2cbd
00000350: e39c fc3c be46 a53d e054 19b9 64b2 47bd
00000360: 991f 833d c26e 933c ecf0 09bd 1a7b 063d
00000370: 369a a43c 8e26 633d 4070 b63d 4f5e bf3b
00000380: 7611 743c 4598 453d 5780 c83c d4d4 923c
00000390: dacf b63c b0b1 62bd 4c9e 9e3a 20b1 743d
000003a0: 9fe2 513d d546 ac3c edc0 043d d3d6 b73d
000003b0: efc9 a23b 6893 083d aacc 8d3d 5c67 da3c
000003c0: 7711 543d 073b c63c 4fd7 1b3d 519a 26bb
000003d0: db2b 803b 9729 39bc 216d 193c 06c7 003d
000003e0: 33c9 84bd 4391 b0bc e454 083d 84c2 943d
000003f0: d4b3 a8bc 8259 173d f71c a2bc a42e a4bb

fc1.bias f4 [50]
0.013499217 0.011657661 0.009392535 0.040560085 0.02584668 -0.006165373 0.014604511 0.032615405
0.011984339 -0.010191592 -0.014347039 0.0075173695 0.004667811 -0.0032772978 0.021331415 0.018351838
0.012944351 0.02167716 0.022184204 0.034923103 -0.021291621 0.037300162 0.014113972 0.0031590923
0.0015893626 0.01579269 -0.023257459 0.0098227225 -0.0037356147 -0.011949581 -0.010212275 0.02518901
-0.008238722 -0.024881342 -0.010164813 0.002483516 0.0015572277 -0.023093268 0.032484826 0.037403747
0.023644488 0.040089313 0.035065386 0.030529508 -0.007305044 0.0062979762 0.0074831815 0.026112001
0.0520171 -0.02348265
00000000: d22b 5d3c c6ff 3e3c 26e3 193c 5522 263d
00000010: 6bbc d33c e606 cabb c247 6f3c bb97 053d
00000020: f659 443c a3fa 26bc d80f 6bbc 4454 f63b
00000030: 70f4 983b efc7 56bb 38bf ae3c 9856 963c
00000040: 8b14 543c 4d94 b13c a6bb b53c 870b 0f3d
00000050: c46b aebc 0ec8 183d 4a3e 673c c608 4f3b
00000060: 2952 d03a ac5f 813c 6d86 bebc 7cef 203c
00000070: 37d1 74bb 2dc8 43bc 6351 27bc 2f59 ce3c
00000080: b4fb 06bc f5d3 cbbc 518a 26bc 7cc2 223b
00000090: e41b cc3a 182e bdbc cf0e 053d ac34 193d
000000a0: 16b2 c13c b134 243d b9a0 0f3d 0519 fa3c
000000b0: 275f efbb 415f ce3b 7a35 f53b d6e8 d53c
000000c0: e20f 553d b05e c0bc

fc2.weight f4 [10, 50]
0.24079874 -0.20964299 0.017199032 -0.06889208 0.34658533 -0.15804276 -0.23236899 -0.2363971
0.16588259 -0.26848906 0.2766653 0.22142178 -0.14239463 -0.22545081 -0.31572932 -0.03471921
-0.2321341 -0.13583773 -0.21473171 -0.15411016 -0.092449024 -0.111886635 -0.2126612 0.06895044
-0.15957849 0.048449375 -0.31115228 0.23444526 -0.22421974 -0.0013796807 0.2826884 -0.13697751
-0.19378075 0.16502748 0.09110295 0.23711346 -0.3043095 -0.29785955 -0.1758425 -0.17138977
0.2034821 0.22423099 -0.06435788 0.32345474 0.28747186 0.18524642 0.24564403 -0.21998006
-0.16908447 -0.24724287 -0.24458769 -0.17755729 -0.19171776 -0.28859007 0.3200153 -0.060938638
-0.13422018 0.15780583 -0.1329469 0.20119825 -0.07502079 -0.20443471 -0.07131534 0.18161066
0.18157367 -0.22307819 -0.07066383 0.026357844 -0.08863463 0.23717433 -0.025280176 0.19350421
0.23761621 0.3503556 -0.3179904 0.3938829 -0.2938284 -0.15891284 -0.22260357 -0.12917486
-0.21181445 0.2045057 -0.11571928 -0.31334063 -0.23861344 -0.13694112 0.10961062 -0.10192386
0.25652644 0.20703706 -0.21034104 -0.04525419 0.38840935 -0.1272651 0.14679728 -0.057837784
-0.13735932 -0.29437348 0.25717542 -0.0055695637 -0.085421376 -0.28095233 0.1904436 -0.19664308
-0.25450408 0.39131042 0.16621943 0.17430748 0.15711449 -0.19864704 -0.19535802 0.18949844
-0.18418992 0.21173532 0.14103857 -0.011003399 0.21489577 -0.11101785 0.19118132 -0.09714003
0.019960204 -0.21262994 0.20725198 -0.19801204 -0.2193051 -0.090144664 -0.27431214 0.24455173
-0.12220825 0.050993726 -0.02959675 0.1953127 -0.1751902 -0.23537357 0.22025406 -0.07832881
-0.22068422 -0.16804394 0.24317041 -0.22507821 -0.21236971 -0.20896463 -0.044259775 0.29686812
-0.1745873 0.1901766 0.23983756 -0.03406758 -0.1080591 -0.072388925 -0.054812454 0.2121678
-0.088754706 -0.10991281 -0.1262008 -0.015947847 -0.15866993 -0.1869419 -0.1534011 -0.198519
0.269036 -0.036887836 -0.13125025 0.17099112 -0.16705506 0.24743497 0.20755975 0.21224183
0.24618809 -0.23103921 0.31116986 -0.27389213 0.22492869 -0.19926663 -0.15434586 -0.12081027
-0.043969333 0.17389771 0.24118938 0.306122 -0.22260982 0.20699833 -0.23294815 0.13372678
0.21505822 -0.23832805 0.20081362 -0.04576107 -0.041294433 0.1963642 -0.065034695 0.16336703
-0.18224002 0.064651646 -0.10739208 -0.058142614 0.21702869 -0.10326471 -0.18895957 -0.15676196
-0.18792568 0.11384558 0.18060994 -0.2210553 -0.08240817 -0.1581462 0.2489908 0.17948297
-0.16459511 0.21961485 -0.23440003 -0.1845573 -0.23693629 0.19548811 0.16906321 -0.13831681
-0.24705306 0.21175432 -0.15142679 0.16069955 0.2802403 -0.24053617 -0.23536271 0.05490422
0.22703594 -0.13800618 0.23062763 -0.091920264 -0.12799446 -0.15532815 0.2505552 -0.2347085
0.21732809 -0.22478051 -0.21352199 -0.18566781 0.15038337 0.22341326 -0.14428285 -0.22673206
-0.33613604 -0.22695483 -0.1308069 -0.021068526 -0.035845585 -0.18960737 -0.1327849 -0.025904683
-0.068469994 0.27668196 0.22553016 0.20508544 -0.05358933 0.1759904 -0.089592695 0.09461731
00000000: f293 763e a7ac 56be fce4 8c3c 4a17 8dbd
00000010: a273 b13e f6d5 21be 23f2 6dbe 1512 72be
00000020: 20dd 293e 6677 89be 13a7 8d3e 64bc 623e
00000030: e6cf 11be 94dc 66be 46a7 a1be bb35 0ebd
00000040: 90b4 6dbe 0c19 0bbe a1e2 5bbe 0ecf 1dbe
00000050: ea55 bdbd d224 e5bd dcc3 59be e335 8d3d
00000060: 8b68 23be da72 463d 5a4f 9fbe 6b12 703e
00000070: dc99 65be 67d6 b4ba 89bc 903e d543 0cbe
00000080: 766e 46be f7fc 283e 2f94 ba3d dfcd 723e
00000090: 74ce 9bbe 0c81 98be 0e10 34be cd80 2fbe
000000a0: 9d5d 503e cf9c 653e 10ce 83bd dc9b a53e
000000b0: 832f 933e 3db1 3d3e 1c8a 7b3e 7442 61be
000000c0: 7b24 2dbe 3c2d 7dbe 3275 7abe 94d1 35be
000000d0: a951 44be 14c2 93be 0cd9 a33e cb9a 79bd
000000e0: 0471 09be da97 213e 3b23 08be ea06 4e3e
000000f0: 80a4 99bd 5557 51be c70d 92bd 25f8 393e
00000100: 73ee 393e 9c6e 64be 33b8 90bd 68ec d73c
00000110: 1386 b5bd d4dd 723e 5f18 cfbc f825 463e
00000120: aa51 733e cf61 b33e a3cf a2be 05ab c93e
00000130: ad70 96be 0cba 22be 31f2 63be 6a46 04be
00000140: e3e5 58be f169 513e 3bfe ecbd 2f6e a0be
00000150: 1557 74be 4b3a 0cbe 887b e03d 75bd d0bd
00000160: 6f57 833e 8601 543e a463 57be 755c 39bd
00000170: 97dd c63e c851 02be 0752 163e 50e7 6cbd
00000180: eca7 0cbe 1fb8 96be 7fac 833e e380 b6bb
00000190: 67f1 aebd fcd8 8fbe a603 433e ce5c 49be
000001a0: 5c4e 82be d759 c83e 6d35 2a3e a97d 323e
000001b0: 9fe2 203e 216a 4bbe ef0b 48be e10b 423e
000001c0: 489c 3cbe 25d1 583e 6a6c 103e 9a47 34bc
000001d0: a30d 5c3e 545d e3bd 09c5 433e 5af1 c6bd
000001e0: 9583 a33c aabb 59be dd39 543e abc3 4abe
000001f0: 8491 60be c49d b8bd a472 8cbe c56b 7a3e
00000200: 5248 fabd ccde 503d e274 f2bc 0d00 483e
00000210: 0f65 33be c505 71be 488a 613e db6a a0bd
00000220: 0bfb 61be b613 2cbe aa01 793e e77a 66be
00000230: 7277 59be d3fa 55be bd49 35bd 19ff 973e
00000240: 03c7 32be a8bd 423e fa97 753e 728a 0bbd
00000250: 174e ddbd a540 94bd 0683 60bd 8442 593e
00000260: 07c5 b5bd f819 e1bd c83a 01be 0fa5 82bc
00000270: 5f7a 22be b36d 3fbe 2e15 1dbe 9148 4bbe
00000280: 16bf 893e b317 17bd 7766 06be 4c18 2f3e
00000290: 7b10 2bbe 985f 7d3e 8b8a 543e ec55 593e
000002a0: bb18 7c3e 8b95 6cbe a851 9f3e 973b 8cbe
000002b0: b553 663e 8d0c 4cbe d70c 1ebe 606b f7bd
000002c0: 3019 34bd 3e12 323e 59fa 763e 06bc 9c3e
000002d0: d4f3 63be 5ff7 533e f689 6ebe acef 083e
000002e0: 3938 5c3e 450c 74be 16a2 4d3e f66f 3bbd
000002f0: 5a24 29bd b213 493e e930 85bd b049 273e
00000300: 219d 3abe 1568 843d 61f0 dbbd f326 6ebd
00000310: c53c 5e3e 737c d3bd 9e7e 41be 3586 20be
00000320: 976f 40be df27 e93d d0f1 383e 525c 62be
00000330: 9dc5 a8bd 14f1 21be 72f7 7e3e 62ca 373e
00000340: 9f8b 28be b7e2 603e 9006 70be 97fc 3cbe
00000350: 6d9f 72be 092e 483e e81e 2d3e eca2 0dbe
00000360: 7afb 7cbe 20d6 583e a00f 1bbe 6c8e 243e
00000370: a87b 8f3e 1d4f 76be ec02 71be 3fe3 603d
00000380: 1c7c 683e 7e51 0dbe a629 6c3e b140 bcbd
00000390: fb10 03be 580e 1fbe c548 803e 6d57 70be
000003a0: 418b 5e3e dd2c 66be 82a5 5abe b41f 3ebe
000003b0: 19fe 193e 72c6 643e e2be 13be 732c 68be
000003c0: 061a acbe d966 68be 3ef2 05be e797 acbc
000003d0: d2d2 12bd 6f28 42be c4f8 07be 0f36 d4bc
000003e0: ff39 8cbd 42a9 8d3e 61f1 663e eb01 523e
000003f0: 7c80 5bbd d436 343e 607c b7bd b8c6 c13d

fc2.bias f4 [10]
0.0026521608 0.16507162 -0.042625926 -0.29875413 0.43158615 -0.26241925 0.28130242 0.1170035
-0.24911535 -0.14368561
00000000: e0cf 2d3b 8908 293e 8698 2ebd 4df6 98be
00000010: dcf8 dc3e d15b 86be df06 903e 889f ef3d
00000020: 1818 7fbe 5222 13be
